ckp/edac-walker2d-medium-expert-230227-224832/actor-final.pt (torch, 296887 bytes, 8 tensors)

hidden.0.weight f4 [256, 17]
0	0xbe890bc4	-0.2676679
1	0x3e5e802f	0.21728586
2	0xbfc7acf8	-1.5599661
3	0x3eb3b84b	0.35101542
4	0x3ea22007	0.3166506
5	0x3fe45103	1.7837223
6	0x3fa03b04	1.251801
7	0xbfc343f0	-1.5255108
8	0x3ebb1b0a	0.36544067
9	0xbe0fb53b	-0.14033978
10	0xbf317305	-0.6931613
11	0x3def7dbe	0.11693905
12	0xbdeefadb	-0.11668941
13	0x3e48630f	0.19569038
14	0x3ee76c2a	0.4519971
15	0x3e6dc6b5	0.23220332
16	0xbe370c3c	-0.17875761
17	0xbf4e9b7b	-0.80705994
18	0xbfae6fac	-1.362783
19	0xc0287583	-2.6321723
20	0xbe52e623	-0.20595603
21	0xbe441771	-0.19149567
22	0xbf68e70f	-0.9097757
23	0xbfc107dd	-1.5080525
24	0xbfab293a	-1.3371956
25	0x3d6e8dd1	0.058240715
26	0xbf910d00	-1.1332092
27	0xbf302174	-0.68801045
28	0x3e7aeffd	0.24505611
29	0x3d8d3388	0.068945944
30	0xbe6972a9	-0.22797646
31	0xbee186c5	-0.44048133
32	0xbeadfefb	-0.33983597
33	0xbe6b562d	-0.22982092
34	0x3e3aba86	0.18235216
35	0xbea14fca	-0.31506187
36	0x3e1c6c1b	0.15275614
37	0xbf6b63d0	-0.91949177
38	0xbece3ae3	-0.40279302
39	0xbea6a838	-0.32550216
40	0x3f81f492	1.0152762
41	0x3ff13011	1.8842794
42	0xbf758816	-0.95910776
43	0xbd930b3e	-0.07179879
44	0xbd172444	-0.03689982
45	0x3eaea7c2	0.34112364
46	0x3e692f68	0.2277199
47	0x3c91ad3b	0.017782798
48	0xbe69b58d	-0.22823162
49	0x3e680947	0.22659789
50	0x3ec5b844	0.38617146
51	0xbe93a022	-0.2883311
52	0x400203f9	2.0314925
53	0x3f78a244	0.971226
54	0xbf981f2d	-1.1884514
55	0xbe8eb190	-0.27869844
56	0x3f12bf35	0.5732301
57	0x3effec1b	0.49984822
58	0xbf1124b7	-0.5669665
59	0xbf018e51	-0.5060778
60	0xbe256ca5	-0.16154726
61	0xbcc3baae	-0.023892727
62	0xbdad6be2	-0.08467843
63	0x3e536195	0.20642693
64	0xbbaa29b3	-0.005192959
65	0x3e869665	0.26286617
66	0x3f08c84b	0.5343062
67	0x3e604f80	0.21905327
68	0x3e4c5ceb	0.1995732
69	0xbedbc97b	-0.42927155
70	0x3d46e0e1	0.048554305
71	0x3baa90a8	0.0052052327
72	0x3e7b906e	0.24566814
73	0x3ebaa40f	0.36453292
74	0xbf7d881a	-0.990358
75	0x3f225b2f	0.63420385
76	0x3e4e8910	0.20169473
77	0xbe91c225	-0.28468433
78	0xbd9d06a9	-0.07667286
79	0x3e256860	0.16153097
80	0x3f10a87a	0.56507075
81	0xbd970b37	-0.07375186
82	0x3e8aa185	0.27076355
83	0xbe1d50d7	-0.15362869
84	0xbd66315b	-0.056199413
85	0x3d15afe0	0.03654468
86	0x3f18d0e0	0.5969372
87	0x3f2efd75	0.68355495
88	0xbef3fa5c	-0.47651947
89	0x3eea869b	0.4580582
90	0xbf4a667a	-0.79062617
91	0x3fccc43b	1.5997385
92	0xbfc12c9c	-1.5091739
93	0xbf1e9f6d	-0.61962014
94	0x3ea14102	0.3149491
95	0x3e9188a5	0.28424564
96	0x3e2f7205	0.17133339
97	0x3e3dac7a	0.18522826
98	0xbf0b5569	-0.544272
99	0xbeb222bf	-0.34792134
100	0xbeaba978	-0.33527732
101	0xbe598363	-0.21241526
102	0x3ec0d5b0	0.3766303
103	0xbd00de78	-0.031462163
104	0x3dda509d	0.10659907
105	0x3ed7092c	0.41999185
106	0xbe465048	-0.19366562
107	0xbfc537c1	-1.540764
108	0xbf0ab69d	-0.54184896
109	0xbfa8f5a7	-1.3199967
110	0xbf6408a7	-0.890757
111	0xbe63047e	-0.22169682
112	0xbdd4d407	-0.103920035
113	0x3e4c9023	0.19976859
114	0x3e67583f	0.22592257
115	0x3e385e8f	0.18004821
116	0x3e9cc694	0.30620253
117	0xbeb90dbe	-0.36143297
118	0xbe735c8f	-0.23765777
119	0x3db27fd2	0.08715786
120	0xbf9c0cc8	-1.21914
121	0xbeb8ebd4	-0.36117423
122	0xbe67933d	-0.2261476
123	0x3f2c7690	0.6736841
124	0x3f8a3994	1.0798821
125	0x3ed8c06e	0.42334312
126	0x3f4bd77a	0.79625666
127	0xbe999347	-0.29995176
128	0xbe9d28e0	-0.30695248
129	0xbf11cd19	-0.5695358
130	0xbd3dc980	-0.046334743
131	0x3c97a97e	0.018513437
132	0x3e7ba78c	0.24575633
133	0x3b9ab24e	0.0047209626
134	0x3ec59a36	0.38594216
135	0x3d978c0f	0.07399761
136	0x3d084f6a	0.03327886
137	0x4022f7be	2.546371
138	0x3fea76b4	1.8317475
139	0xbefcf995	-0.49409166
140	0x3f2fc74a	0.68663466
141	0xc05b879c	-3.430152
142	0xbf219b2e	-0.6312741
143	0x3f6a6aa1	0.9156895
144	0xbbd75b26	-0.006572145
145	0xbd8fc933	-0.070207976
146	0xbf35bfcf	-0.709958
147	0x3ea711dc	0.32630813
148	0x3e329475	0.17439444
149	0x3d9d06ad	0.07667289
150	0xbe2b7775	-0.16744788
151	0x3ddda05c	0.10821602
152	0x3c34c9c4	0.011034433
153	0xbed58a41	-0.41707042
154	0x4010fe1f	2.2655103
155	0xbf50cd1f	-0.8156299
156	0xbe7cb664	-0.24678952
157	0x3e2d9b69	0.16953816
158	0xbf9374a4	-1.1519971
159	0x3f0bc956	0.5460409
160	0x3e4a39a7	0.19748555
161	0x3ea53558	0.3226726
162	0xbd958c80	-0.07302189
163	0x3e302345	0.17200954
164	0xbd8b6ee6	-0.068082616
165	0xbd71289a	-0.05887661
166	0x3dc62047	0.09674125
167	0xbe16a784	-0.1471234
168	0xbe05b44e	-0.13057062
169	0x3ce422db	0.027848652
170	0xbe66e030	-0.22546458
171	0xbc85591d	-0.016277844
172	0x3f84dd38	1.0380011
173	0xbea10c66	-0.31454772
174	0x3f859ccb	1.0438474
175	0xbeb012b5	-0.34389272
176	0xbfa92d75	-1.3216997
177	0xbea772e7	-0.3270485
178	0x3c430944	0.011904065
179	0xbeaa9aa2	-0.333211
180	0x3f1585fe	0.5840758
181	0x3e92b146	0.28650874
182	0x3b954e29	0.0045564366
183	0xbd4f8c1d	-0.05067073
184	0x3e903028	0.2816174
185	0xbdd7c336	-0.105352804
186	0xbdb86f27	-0.090055756
187	0xbf4b4d39	-0.7941471
188	0x3fbab6f8	1.4587088
189	0xbfc3701c	-1.5268588
190	0xbf3e780c	-0.74401927
191	0x3e0e3704	0.13888174
192	0x3f89e326	1.0772445
193	0x3e83eff0	0.25768995
194	0xbf03b3db	-0.5144631
195	0x3e839536	0.25699776
196	0xbf2d368a	-0.67661345
197	0xbf27db96	-0.65569437
198	0xbe230c8e	-0.15922758
199	0x3e2172a3	0.15766387
200	0x3dabf5d8	0.083965
201	0x3ddb9035	0.10720865
202	0xbd62f731	-0.05541152
203	0xbd3da336	-0.04629823
204	0x3ed13a26	0.40864676
205	0x3e16d5fd	0.14730068
206	0xbf269235	-0.65066844
207	0xbfde0963	-1.7346615
208	0x3cd8751b	0.026423028
209	0x3fe95921	1.8230325
210	0x402450e5	2.5674374
211	0xbf551d1f	-0.8324756
212	0x3e758ddc	0.23979896
213	0xbeb1d3a9	-0.34731796
214	0x3da9abb4	0.08284703
215	0xbd81e469	-0.06342394
216	0xbe0372e9	-0.12836803
217	0x3baa3fc0	0.005195588
218	0x3d975395	0.07388989
219	0x3d6d0d20	0.057873845
220	0x3ccc2e87	0.02492453
221	0x3ee304c3	0.4433957
222	0xbb7bd9c9	-0.003842937
223	0xbec6cf11	-0.38829854
224	0x3f8b87e1	1.0900842
225	0x3e15ac4e	0.1461651
226	0x3f6dae70	0.92844296
227	0xbfac1a8d	-1.3445603
228	0xbe939149	-0.2882178
229	0xbe6989d5	-0.22806485
230	0xbd826bd3	-0.06368222
231	0x3e9e0431	0.30862573
232	0xbe38ffac	-0.18066281
233	0xbc027e84	-0.007964734
234	0x3e42bcbc	0.19017309
235	0x3e1a9f7f	0.15099905
236	0xbdf22b45	-0.11824659
237	0x3dcabe53	0.09899583
238	0xbe39f16d	-0.18158503
239	0xbf04933b	-0.51787156
240	0xbed8a7a4	-0.423154
241	0xbe22ebe9	-0.15910305
242	0xc00fa645	-2.2445233
243	0x3f11490b	0.5675208
244	0xbf412feb	-0.7546374
245	0x3d700251	0.05859596
246	0xbf04b34a	-0.51836073
247	0xbf05ca18	-0.52261496
248	0x3f588235	0.8457368
249	0xbe8f865f	-0.28032205
250	0x3e2945f4	0.16530591
251	0x3e776c30	0.24162364
252	0xbe06018c	-0.13086528
253	0x3e8d9a43	0.27656755
254	0xbddb8570	-0.107188106
255	0xbe2c55ca	-0.16829601

hidden.0.bias f4 [256]
0	0x3dd2829b	0.10278817
1	0xbe1f5a13	-0.15561704
2	0x3e4af30f	0.19819282
3	0xbe3d8834	-0.18508989
4	0xbe67603b	-0.22595303
5	0x3e9a042c	0.30081308
6	0x3f151b13	0.58244437
7	0xbd7b8bed	-0.06141274
8	0x3e1f3711	0.1554835
9	0x3ea2c9d5	0.3179461
10	0x3ee49bda	0.44650155
11	0xbe50b40d	-0.20381184
12	0x3eb66263	0.35621938
13	0x3ea8166a	0.328296
14	0xbd2f8964	-0.042855635
15	0xbdd7e821	-0.10542322
16	0xbda52c6c	-0.080651134
17	0x3f1c5622	0.6106893
18	0x3ea965de	0.3308553
19	0xbcf725a4	-0.030169316
20	0x3f12cbab	0.5734202
21	0x3e81299e	0.25227064
22	0x3e2ec85e	0.17068622
23	0xbd10596d	-0.035241533
24	0xbe57c0b8	-0.2106961
25	0x3f164e2f	0.5871305
26	0x3f024778	0.508903
27	0xbdada522	-0.08478762
28	0x3eab6db1	0.33482125
29	0x3e82f0f6	0.25574464
30	0x3e48d3d3	0.19612055
31	0x3e71fa8a	0.2363073
32	0x3ede08db	0.4336613
33	0xbdc527af	-0.0962671
34	0x3e161e2a	0.14659944
35	0x3df94bc4	0.12172654
36	0x3e892660	0.2678709
37	0xbd3c47cc	-0.04596691
38	0xbede9c03	-0.43478402
39	0xbd3fb62e	-0.0468046
40	0x3e603183	0.21893887
41	0x3f4b2e83	0.79367846
42	0x3eb45fae	0.35229248
43	0x3efc5285	0.49281707
44	0x3d14435a	0.036197044
45	0x3e94a1c3	0.29029664
46	0x3e6e679f	0.23281716
47	0x3ea0778b	0.31341204
48	0xbedaa6c0	-0.42705345
49	0xbe8d971f	-0.2765436
50	0xbe2c90b9	-0.16852082
51	0x3f41d387	0.7571339
52	0xbd8467c9	-0.06465108
53	0xbe7879a5	-0.24265154
54	0x3ea9eb17	0.33187172
55	0x3e97be83	0.29637536
56	0x3eb26ce8	0.34848714
57	0xbee2d50c	-0.44303167
58	0xbeba22b6	-0.36354607
59	0x3f06d6fc	0.5267179
60	0x3dd17b09	0.10228545
61	0xbe66fc42	-0.22557166
62	0x3eb7b774	0.3588215
63	0x3f3a106a	0.72681296
64	0xbf39740e	-0.7244271
65	0x3c838824	0.016056128
66	0x3e96e879	0.29474238
67	0xbc7e3075	-0.015514483
68	0xbe459c49	-0.192979
69	0xbdbc75fa	-0.0920219
70	0x3c5b0850	0.013368681
71	0x3daf9af9	0.085744806
72	0xbe8c56e2	-0.27410036
73	0x3f1a1948	0.60194826
74	0x3ddbe4be	0.107369885
75	0xbf21263c	-0.62948966
76	0xbf372b86	-0.71550786
77	0xbbe4d94c	-0.0069839116
78	0x3ded188e	0.11576949
79	0xbe31a5d3	-0.17348413
80	0x3f50b970	0.81532955
81	0xbebf4455	-0.3735682
82	0x3e8fe160	0.28101635
83	0x3d21d80d	0.039512683
84	0x3eb4ab43	0.35286912
85	0xbf0c9873	-0.5492012
86	0x3def9f49	0.11700303
87	0x3ea51e79	0.3224981
88	0x3e9bb601	0.30412295
89	0x3e22be06	0.158928
90	0xbdd8a90e	-0.105791196
91	0x3f28812b	0.65822095
92	0xbe6e9fa9	-0.23303093
93	0x3da86647	0.08222633
94	0x3e186fea	0.14886442
95	0xbea4d87c	-0.32196414
96	0x3ee2b2d6	0.44277066
97	0x3efa5dcb	0.48899683
98	0x3f7687bd	0.9630087
99	0x3e624b66	0.22099075
100	0xbe819e9d	-0.25316325
101	0xbee51348	-0.44741273
102	0x3d8c6bdd	0.06856511
103	0x3d1a8d6f	0.037732538
104	0x3f2e9df8	0.6820979
105	0x3d835499	0.0641262
106	0xbe39ced7	-0.1814531
107	0x3ec358e9	0.3815377
108	0x3d1a86c4	0.03772618
109	0xbe46b8f6	-0.19406494
110	0x3ef96a62	0.48713976
111	0x3f028696	0.5098661
112	0xbebb9911	-0.36640218
113	0x3e0b93fb	0.13630669
114	0x3d4ee000	0.05050659
115	0xbe111dd0	-0.14171529
116	0x3e471984	0.19443327
117	0xbe985109	-0.29749325
118	0x3e413e44	0.18871409
119	0x3e6472fb	0.22309487
120	0xbd81e59d	-0.063426234
121	0x3edae700	0.42754364
122	0xbe0bf964	-0.13669354
123	0x3f001cc8	0.50043917
124	0xbe235d65	-0.15953596
125	0xbe2b1ce3	-0.16710238
126	0xbdd18c33	-0.10231819
127	0x3ee4e799	0.44707945
128	0x3d0ffb80	0.03515196
129	0xbe94802e	-0.29004043
130	0xbf0813f4	-0.53155446
131	0x3e9d1024	0.30676377
132	0x3eb6b27e	0.35683054
133	0x3f2e4fe2	0.6809064
134	0xbefe7bd4	-0.49703848
135	0x3edde1b5	0.43336263
136	0x3e7869dc	0.24259132
137	0xbe8967ae	-0.26836914
138	0x3f5e33d5	0.8679784
139	0x3e93b966	0.28852385
140	0xbe6aa979	-0.22916211
141	0xbea7da2b	-0.32783636
142	0x3eac3bd5	0.33639398
143	0x3dbd98f5	0.0925769
144	0x3e4d54b7	0.20051847
145	0x3c50d64b	0.012746404
146	0x3e10c8b4	0.14139062
147	0x3b8843eb	0.004158487
148	0xbee133ae	-0.4398474
149	0x3f19045b	0.5977227
150	0xbdb3e099	-0.08783073
151	0xbecc4def	-0.3990321
152	0x3d21a70f	0.03946596
153	0x3e04338c	0.12910289
154	0x3dc56a82	0.096394554
155	0x3dfd8156	0.123781845
156	0x3e3e7a35	0.18601306
157	0xbe5a9cea	-0.2134892
158	0xbe8a65a3	-0.27030668
159	0x3ec942fc	0.39308918
160	0xbec4a416	-0.38406438
161	0x3f1f0865	0.62122184
162	0x3dd60656	0.10450427
163	0x3ee7a67a	0.452442
164	0xbe4b52d9	-0.19855823
165	0xbea439ea	-0.32075435
166	0x3e43f896	0.19137797
167	0xbd4744f2	-0.048649736
168	0x3d5b2a68	0.05350724
169	0xbe277333	-0.16352539
170	0x3d6bd80b	0.05757908
171	0x3edcb331	0.43105462
172	0x3f1c5974	0.61073995
173	0x3f005210	0.5012522
174	0x3e91983b	0.28436455
175	0x3ebcb918	0.36859965
176	0xbd319de3	-0.043363463
177	0x3e7be46c	0.24598855
178	0xbeb1bf95	-0.34716478
179	0xbe8530b2	-0.26013714
180	0xbe7ae0ed	-0.24499865
181	0xbe6ce1be	-0.23132989
182	0x3dd81935	0.10551683
183	0x3e80a9d8	0.2512958
184	0x3d50c388	0.050967723
185	0x3e46b889	0.19406332
186	0x3ea5d967	0.32392427
187	0x3f1949d8	0.598783
188	0x3ee0a56b	0.43876204
189	0x3f474569	0.77840286
190	0xbe9f9d31	-0.31174615
191	0xbd1f5d7b	-0.03890751
192	0x3f46dc68	0.77680063
193	0x3df539fd	0.11973951
194	0x3eba2865	0.36358944
195	0xbe1b37fc	-0.15158075
196	0xbdaa80b5	-0.0832533
197	0x3e96937f	0.29409406
198	0x3dc8e6e6	0.098096654
199	0xbe2a6682	-0.16640666
200	0x3e8f6660	0.28007793
201	0x3e73f37c	0.2382335
202	0xbebd2af8	-0.36946845
203	0x3f2bd58c	0.6712272
204	0x3ea4eb48	0.32210755
205	0xbecc77e3	-0.39935216
206	0xbe137c64	-0.1440292
207	0x3ea928a9	0.33038834
208	0x3e972f90	0.29528475
209	0x3e70593b	0.23471539
210	0x3e72bfa5	0.23705919
211	0x3f525ebb	0.821758
212	0x3e74a970	0.2389276
213	0xbef1f040	-0.4725361
214	0x3f2fda8b	0.68692845
215	0x3c74da15	0.014944573
216	0x3ef90764	0.4863845
217	0xbedd060b	-0.43168673
218	0x3f0a9916	0.5413984
219	0x3e12000c	0.1425783
220	0xbdd5192a	-0.1040519
221	0x3f3d3217	0.73904556
222	0x3e1ab7ed	0.15109225
223	0x3e552f16	0.20818743
224	0xbcda7b5d	-0.026670152
225	0x3ed4b088	0.41540933
226	0x3eca0d8d	0.39463463
227	0x3e60b4e9	0.21944012
228	0x3ed6fae4	0.4198829
229	0xbcfc8e42	-0.030829553
230	0xbde09d34	-0.10967484
231	0x3ee8eee9	0.45494774
232	0x3df7a348	0.1209169
233	0xbd866013	-0.065612935
234	0x3f6c3c96	0.92279947
235	0x3f00fe0f	0.5038766
236	0xbdd5776d	-0.10423169
237	0x3f750dc0	0.95724106
238	0x3e694ac9	0.22782435
239	0x3e97f191	0.29676488
240	0xbe86c034	-0.26318514
241	0xbdfba8ec	-0.12288079
242	0xbef90808	-0.4863894
243	0x3f474454	0.77838635
244	0x3ed03006	0.4066164
245	0xbf098e07	-0.5373234
246	0x3f028ed9	0.5099922
247	0x3f059c17	0.521913
248	0x3f4a5917	0.7904219
249	0xbeca898d	-0.39558068
250	0x3f22e965	0.6363738
251	0x3f3f7296	0.7478422
252	0x3dc6172a	0.09672387
253	0x3e60850e	0.21925756
254	0xbea3361f	-0.3187723
255	0x3ee87d03	0.45407876

hidden.2.weight f4 [256, 256]
0	0x3e950d31	0.29111627
1	0x3e0368fe	0.1283302
2	0xbe1cf05c	-0.15326065
3	0xbec18876	-0.37799424
4	0x3e7f6f3a	0.24944773
5	0x3dca512a	0.09878762
6	0x3d809446	0.06278281
7	0x3e284868	0.16433871
8	0x3cbdac3b	0.023153415
9	0xbdd43191	-0.103610165
10	0x3e199ee5	0.1500202
11	0x3e9d7ae8	0.30757833
12	0xbebee3ae	-0.3728308
13	0x3d6f0131	0.058350746
14	0xbf19c3fd	-0.6006468
15	0x3e323b48	0.17405427
16	0xbe3eb2fb	-0.18622963
17	0x3eec252e	0.46122116
18	0x3e121abb	0.1426801
19	0x3df50180	0.11963177
20	0xbde7fa13	-0.11326995
21	0xbe02c852	-0.12771729
22	0x3c8adc66	0.016950797
23	0xbeb9c9c2	-0.36286741
24	0xbb7f033b	-0.0038911838
25	0xbdfcadf1	-0.12337864
26	0xbb2176ac	-0.0024637384
27	0x3e82b08a	0.25525314
28	0xbdea478a	-0.11439426
29	0xbf3389b8	-0.7013202
30	0xbca7feec	-0.020507298
31	0xbe09986e	-0.13437054
32	0x3f2c6544	0.6734202
33	0x3e64a713	0.22329359
34	0xbdb2b661	-0.08726192
35	0x3eb1598a	0.34638625
36	0xbfb2d7a1	-1.3972055
37	0x3ef952cd	0.48695984
38	0x3ee05a3b	0.4381884
39	0xbe49a213	-0.19690733
40	0xbf3da507	-0.74079937
41	0x3d3b5223	0.04573263
42	0xbcc92a61	-0.02455634
43	0x3caa1ca6	0.020765614
44	0xbef3949c	-0.47574317
45	0xbd229620	-0.03969395
46	0x3e2a266d	0.16616221
47	0xbe5d007d	-0.21582218
48	0xbf01acbb	-0.5065419
49	0x3d060a9f	0.032724973
50	0x3e872e67	0.2640259
51	0xbd719a11	-0.05898482
52	0xbd67e533	-0.056615066
53	0xbeae2888	-0.34015298
54	0x3ead19a5	0.33808628
55	0x3dacb5b6	0.08433096
56	0x3ec94c64	0.39316094
57	0x3f1086ae	0.56455505
58	0x3f1c5522	0.610674
59	0x3e84076e	0.25786918
60	0xbf338e53	-0.70139045
61	0xbedf39ed	-0.4359888
62	0xbe74e734	-0.23916322
63	0xbd7f3ba1	-0.062312726
64	0x3e7206e3	0.2363544
65	0x3e820747	0.25396177
66	0xbd174981	-0.036935333
67	0x3e2165ef	0.15761541
68	0xbe7818f8	-0.24228275
69	0x3e437eff	0.19091414
70	0xbdcb5297	-0.09927862
71	0x3e92bea1	0.28661063
72	0xbebd988c	-0.37030447
73	0xbf3dfa14	-0.74209714
74	0xbdfb0c6d	-0.122582294
75	0xbd61abf6	-0.055095635
76	0xbbc1138f	-0.005892224
77	0xbe051cff	-0.12999342
78	0x3ebd8a64	0.37019646
79	0xbefd9716	-0.49529332
80	0xbef6327c	-0.48085392
81	0x3eec5b9a	0.46163636
82	0xbd6c4354	-0.057681397
83	0x3e49827e	0.19678685
84	0xbca1186a	-0.019664962
85	0xbfc99d12	-1.5751059
86	0x3e29a947	0.1656848
87	0xbd850c2c	-0.06496462
88	0x3f16ee5a	0.58957446
89	0xbbe13b2d	-0.0068735094
90	0x3eea7e46	0.45799464
91	0x3da61bc4	0.081107646
92	0x3defe4c3	0.11713555
93	0xbe3b9bc3	-0.18321137
94	0xbee5a30f	-0.44850966
95	0x3dc300af	0.09521615
96	0xbf3a5a9f	-0.72794527
97	0x3c9c78ee	0.019100633
98	0xbf0e3e01	-0.5556336
99	0xbf144c7a	-0.57929194
100	0x3f3ac3c8	0.7295499
101	0x3e6da80b	0.23208635
102	0x3d48daf2	0.049036928
103	0x3d75ab40	0.05997777
104	0xbf2d0640	-0.6758766
105	0xbc3691d4	-0.011143167
106	0xbc608721	-0.013704092
107	0x3efac47e	0.48978037
108	0xbdbf2cd2	-0.09334721
109	0xbf1f3aa5	-0.6219886
110	0xbf1c4138	-0.61037016
111	0x3c685a09	0.014181622
112	0x3e132d3c	0.14372724
113	0x3db42da9	0.087977715
114	0x3e0f3df3	0.13988476
115	0x3ed6bee8	0.41942525
116	0xbeea5cee	-0.45774025
117	0xbe4bdba1	-0.19908
118	0xbe43e62e	-0.19130775
119	0xbeb90ce6	-0.36142653
120	0xbeac15f0	-0.33610487
121	0xbdc573f2	-0.096412554
122	0x3e71f1d6	0.2362741
123	0x3cecff21	0.028930249
124	0x3eae83ef	0.34085032
125	0x3dfb49ac	0.12269911
126	0x3e3a303c	0.18182462
127	0x3e0733cf	0.13203357
128	0x3c147b77	0.009062639
129	0xbe844122	-0.25830942
130	0xbd04745f	-0.032337543
131	0x3e5d41c5	0.2160712
132	0xbe6b65d4	-0.22988063
133	0xbe7dba19	-0.24778022
134	0x3e1772c8	0.1478988
135	0x3c55026f	0.0130010685
136	0x3d84a8b7	0.06477492
137	0xbe451be5	-0.19248922
138	0x3dff9c1b	0.12480947
139	0x3eadbe9f	0.33934495
140	0xbe81842b	-0.2529615
141	0x3e70a9a3	0.23502211
142	0xbeeb12a1	-0.4591265
143	0x3dd3692c	0.10322794
144	0x3ed928a7	0.42413828
145	0xbdc8dcc4	-0.09807733
146	0xbd24db51	-0.04024822
147	0x3eda8566	0.426799
148	0xbd32e27c	-0.043673024
149	0xbeae4b09	-0.34041622
150	0xbe49cd17	-0.19707142
151	0x3e7c6bfe	0.24650571
152	0xbe13b065	-0.14422758
153	0x3d75c402	0.06000138
154	0x3e8ddea6	0.2770893
155	0xbd5a860b	-0.05335049
156	0xbebcd172	-0.36878544
157	0x3dad49ba	0.08461328
158	0xbe845b1b	-0.25850758
159	0x3c03c063	0.008041474
160	0xbe4afe5e	-0.19823596
161	0x3ba0458d	0.0048911036
162	0x3f337117	0.70094436
163	0xbdde72d2	-0.10861744
164	0xbe8be8cd	-0.2732605
165	0x3dd6aa62	0.10481717
166	0x3e702aef	0.23453878
167	0xbe706ad1	-0.23478247
168	0xbf027fb9	-0.5097614
169	0x3ee741d7	0.4516742
170	0xbf72f140	-0.9489937
171	0x3ef2e236	0.4743821
172	0x3e74d3d4	0.23908931
173	0xbebb9eb7	-0.36644527
174	0x3ecb34ec	0.39688814
175	0xbe14ebd8	-0.14543092
176	0x3e681c71	0.226671
177	0x3e027921	0.1274152
178	0x3e1b23df	0.15150402
179	0x3ede0444	0.4336263
180	0x3f565f3a	0.83739054
181	0x3ef8c903	0.4859086
182	0x3d485c17	0.04891595
183	0x3ea039af	0.3129401
184	0x3deaa23f	0.11456727
185	0x3e1ec041	0.15503027
186	0x3e6c52d1	0.23078467
187	0xbe0a0977	-0.13480173
188	0x3e2a7a8e	0.16648313
189	0x3e838f51	0.2569528
190	0x3d943080	0.07235813
191	0xbbcbe06b	-0.006221821
192	0xbf54353e	-0.8289374
193	0xbcfa8a1a	-0.03058343
194	0x3e5da39f	0.21644448
195	0x3ec1317a	0.3773306
196	0x3e82bbf3	0.2553402
197	0x3f1eef41	0.6208382
198	0xbde5b461	-0.11216045
199	0x3e79860b	0.2436754
200	0xbe1fe275	-0.1561373
201	0x3e7b8e5a	0.24566022
202	0xbba64b97	-0.005074929
203	0xbe5fcf37	-0.2185639
204	0x3cc71bda	0.024305273
205	0xbf612997	-0.87954086
206	0xbf0278c3	-0.5096552
207	0x3e153e4f	0.1457455
208	0xbe9126ff	-0.28350064
209	0xbf13ba22	-0.5770589
210	0xbeab076e	-0.33404106
211	0xbeb01820	-0.34393406
212	0x3d745980	0.059655666
213	0x3ef6a3a4	0.48171723
214	0xbf48f3d4	-0.7849705
215	0xbe2e9c2c	-0.17051762
216	0x3f3f8268	0.7480836
217	0x3ee8371b	0.45354542
218	0x3ec1a22b	0.37819037
219	0xbd5654c5	-0.052326936
220	0x3de011b2	0.10940875
221	0x3e921411	0.28530934
222	0x3ec3e305	0.3825914
223	0x3c91b91a	0.017788459
224	0xbe3a0a19	-0.18167914
225	0x3e270b3d	0.16312881
226	0x3e976ed7	0.29576752
227	0xbe474105	-0.19458397
228	0x3e9fe22c	0.31227243
229	0x3e62c5cb	0.22145765
230	0xbf040af8	-0.51579237
231	0x3dcceeee	0.1000651
232	0xbeaf3b9c	-0.34225166
233	0xbe30163f	-0.17195986
234	0x3d732fe3	0.05937184
235	0x3e3ab615	0.18233521
236	0xbe85ec78	-0.26156974
237	0xbf169bfc	-0.58831763
238	0x3f0d0106	0.55079687
239	0x3e2bbf9f	0.16772316
240	0x3e1f7102	0.15570453
241	0x3cc0d56e	0.023539271
242	0xbeace360	-0.33767223
243	0xbe53453a	-0.20631877
244	0x3d66bf21	0.05633462
245	0xbec7240e	-0.38894695
246	0x3e799b3a	0.2437562
247	0xbe7962da	-0.24354115
248	0xbdafba58	-0.08580464
249	0x3e944844	0.28961384
250	0x3e5c5652	0.21517304
251	0xbf59637e	-0.8491744
252	0xbdfbd9b7	-0.12297385
253	0xbeaafc73	-0.33395728
254	0xbf11ae2c	-0.5690639
255	0x3e9009ec	0.2813257

hidden.2.bias f4 [256]
0	0x3c1a6d6b	0.009425501
1	0xbeacb464	-0.33731377
2	0x3ccdfc80	0.025144815
3	0xbd8f59ad	-0.06999526
4	0x3eb44098	0.3520553
5	0xbf077a87	-0.52921337
6	0x3e01ecc5	0.12687977
7	0xbd5b3e41	-0.053526167
8	0xbb7d63b6	-0.0038664169
9	0xbdcffcb0	-0.10155618
10	0x3eab69d8	0.3347919
11	0x3de7e229	0.113224335
12	0x3db3c87f	0.08778476
13	0x3de70537	0.112802915
14	0x3e62f831	0.2216499
15	0xbe73401a	-0.23754922
16	0x3f0458a1	0.51697737
17	0x3f0232b7	0.50858635
18	0xbd1f408d	-0.03887992
19	0x3ecea230	0.40358114
20	0x3e8c5a17	0.27412483
21	0x3e53aab8	0.20670593
22	0xbe3217b4	-0.17391855
23	0xbceeb540	-0.029139161
24	0x3e73adbf	0.23796748
25	0x3e90d91e	0.28290647
26	0x3efa5077	0.48889515
27	0x3e2248d4	0.15848094
28	0x3e9b173b	0.3029116
29	0x3e807071	0.25085786
30	0x3e972c75	0.29526106
31	0x3e6241a0	0.22095346
32	0x3e77a284	0.24183089
33	0xbdaee37a	-0.085394815
34	0x3ec107e0	0.3770132
35	0xbd955f34	-0.07293549
36	0x3f076831	0.5289336
37	0x3df276f1	0.118390925
38	0x3eb45acf	0.3522553
39	0x3e930a46	0.28718776
40	0x3e17b0fc	0.14813608
41	0xbd8ac488	-0.067757666
42	0xbd99459f	-0.07483982
43	0xbefcdf7c	-0.49389255
44	0xbe57b69c	-0.21065754
45	0xbe47ec33	-0.19523697
46	0xbebbe295	-0.36696306
47	0x3efc288d	0.49249688
48	0x3da84788	0.082167685
49	0xbdb6d4cf	-0.08927309
50	0xbc74454f	-0.014909103
51	0x3e8926e4	0.26787484
52	0xbcb058ad	-0.021526659
53	0xbe42d3eb	-0.19026153
54	0x3f285d43	0.65767306
55	0x3ed53d87	0.41648504
56	0xbdaae0bd	-0.08343647
57	0x3e16cd59	0.14726771
58	0x3d9cebb7	0.076621465
59	0xbe0ae367	-0.1356331
60	0x3ecc2aa4	0.39876282
61	0x3c01b507	0.007916695
62	0x3e4e0019	0.20117225
63	0xbe8e1da8	-0.27757
64	0x3e5225a2	0.20522168
65	0xbc92c4f6	-0.017916184
66	0x3e0f1eed	0.13976641
67	0xbe534a4b	-0.2063381
68	0x3e5fe976	0.21866402
69	0x3eb21c8f	0.34787413
70	0xbe54aaa2	-0.20768216
71	0x3e8c3b53	0.2738901
72	0x3de48c7a	0.11159606
73	0x3e6d708c	0.23187464
74	0x3ecaf447	0.39639494
75	0x3ed7bf05	0.42137924
76	0xbdc9863a	-0.09840055
77	0x3e659cff	0.2242317
78	0x3eea2930	0.4573455
79	0x3e540d6c	0.20708245
80	0x3f037f44	0.51366067
81	0x3e2bd31a	0.16779748
82	0x3e9ef517	0.31046364
83	0x3e45ba22	0.19309285
84	0xbdd17c28	-0.10228759
85	0x3e3fa882	0.18716624
86	0x3d7c14e8	0.061543375
87	0x3e62cc9e	0.22148368
88	0x3edb368d	0.42815056
89	0xbeb6320c	-0.35585058
90	0x3e276b8b	0.16349618
91	0x3deb6108	0.114931166
92	0xbda083f4	-0.07837668
93	0xbd3a7348	-0.045520097
94	0x3d4235ad	0.04741447
95	0x3eb45753	0.35222873
96	0xbd2bd50e	-0.04195123
97	0x3f06333c	0.5242193
98	0x3ef9efd0	0.48815775
99	0xbd9e1c7d	-0.077202775
100	0x3eb3b6f3	0.35100517
101	0xbd89f2b4	-0.06735745
102	0xbe5fe279	-0.21863736
103	0x3edb832d	0.42873517
104	0x3e7480b2	0.23877218
105	0x3d10a56a	0.035314
106	0xbc169f3d	-0.009193239
107	0xbe4715b2	-0.1944187
108	0x3d89e96b	0.06733974
109	0x3c608c34	0.013705302
110	0x3dc7b516	0.09751336
111	0x3b56820c	0.0032731323
112	0x3e89b224	0.26893723
113	0x3df8a6f1	0.121412165
114	0x3e09a4ab	0.13441722
115	0x3d914341	0.07092906
116	0x3f138934	0.5763123
117	0xbe2190c5	-0.15777881
118	0xbdde6b40	-0.108603
119	0x3ef15856	0.47137707
120	0xbdd52200	-0.104068756
121	0x3e8b7ba2	0.27242762
122	0xbe5d1dec	-0.21593446
123	0x3ddd6ed1	0.10812152
124	0x3e4b485d	0.19851823
125	0x3e92f67d	0.2870368
126	0x3e48516a	0.19562307
127	0x3f1694cd	0.588208
128	0x3ed18c59	0.4092739
129	0xbd23c7f3	-0.03998561
130	0xbca398c7	-0.01997031
131	0x3dcb9a7b	0.09941574
132	0x3e8a434b	0.27004465
133	0x3e65c22b	0.2243735
134	0x3eb82ee9	0.3597329
135	0x3e9a23b2	0.30105358
136	0x3ee2a2fa	0.44264966
137	0xbe0da23f	-0.13831423
138	0x3d8edf31	0.06976164
139	0x3eab94a6	0.33511847
140	0xbec4646e	-0.38357872
141	0x3e141af7	0.14463411
142	0xbd3be781	-0.045875076
143	0xbe887b72	-0.2665668
144	0x3b1e0bed	0.0024115995
145	0x3e5ab3a9	0.21357597
146	0x3ebb39fb	0.36567673
147	0xbe70678d	-0.23477001
148	0xbe500020	-0.20312548
149	0x3e696112	0.22790936
150	0x3eacd6f7	0.33757755
151	0xbeaa5bf6	-0.33273286
152	0x3e93f377	0.28896686
153	0x3e60401b	0.21899454
154	0x3f06c414	0.5264294
155	0x3c6f8656	0.0146194305
156	0xbc190250	-0.00933893
157	0x3ea08f86	0.313595
158	0xbe12a328	-0.14320052
159	0x3e9d0626	0.30668753
160	0x3b8720a6	0.004123765
161	0x3e064b21	0.13114597
162	0x3dc8158c	0.09769735
163	0xbd7d0ad4	-0.061777905
164	0x3eacd5ea	0.33756953
165	0x3d063313	0.032763552
166	0xbdaed211	-0.08536161
167	0x3eaafd90	0.33396578
168	0x3e166752	0.14687851
169	0x3ca82355	0.02052466
170	0xbf0260e8	-0.5092912
171	0x3e914e01	0.28379825
172	0x3cffd297	0.031228347
173	0xbe2334a1	-0.15938045
174	0xbe88b0ac	-0.2669729
175	0x3f31c681	0.6944352
176	0xbdd42763	-0.10359075
177	0x3e1edb05	0.15513237
178	0x3d32f7db	0.043693405
179	0x3df14b51	0.117819436
180	0x3e452650	0.19252896
181	0x3d5b258a	0.053502597
182	0x3f01342c	0.5047023
183	0x3e9410db	0.2891911
184	0xbe85c071	-0.26123384
185	0x3d17418e	0.036927752
186	0xbee87f2e	-0.4540953
187	0x3dc49a0a	0.09599693
188	0x3e55b7c9	0.2087089
189	0xbe8cd31d	-0.27504817
190	0x3cfb9695	0.030711452
191	0x3e78f9c3	0.24314027
192	0x3df735d8	0.12070817
193	0x3e24737d	0.1605968
194	0x3eb0c78d	0.34527245
195	0xbe1a30c6	-0.15057668
196	0xbf023656	-0.5086416
197	0x3eafcc59	0.34335592
198	0xbcb541de	-0.022126134
199	0xbe3257b3	-0.17416267
200	0x3ec0196b	0.37519392
201	0xbe6a9e8f	-0.22912048
202	0x3e2b355f	0.16719578
203	0x3e6f173f	0.23348711
204	0xbdbd9aa0	-0.09258008
205	0x3db04b69	0.08608133
206	0x3d7cab0f	0.06168657
207	0x3e679986	0.22617158
208	0x3e5c8abb	0.21537296
209	0x3e14f0e0	0.14545012
210	0xbcf73c7f	-0.030180214
211	0xbc619140	-0.01376754
212	0x3ea958f9	0.33075693
213	0xbcf1ac73	-0.029501176
214	0x3e04c2d1	0.12964942
215	0x3e366629	0.17812409
216	0x3def7e23	0.116939805
217	0x3e9d5b9b	0.30733952
218	0x3d7bf5fc	0.061513886
219	0x3e3d1bc2	0.1846762
220	0x3f0ceb2f	0.5504636
221	0x3ecc2e0b	0.39878878
222	0x3f09fddd	0.5390299
223	0xbe7aca9c	-0.24491352
224	0xbdef1cef	-0.116754405
225	0x3e559a91	0.20859744
226	0xbe29a280	-0.16565895
227	0xbedda678	-0.43291068
228	0x3ddfbde3	0.1092489
229	0xbddece10	-0.10879147
230	0x3e9f4000	0.31103516
231	0x3e9db08d	0.3079876
232	0xbe854e5d	-0.2603635
233	0x3dbd2cba	0.092370465
234	0xbdc9ccad	-0.09853492
235	0xbe39141a	-0.18074074
236	0x3f1ce1dd	0.6128214
237	0x3ea5708e	0.32312435
238	0x3ef59190	0.47962618
239	0x3e847f50	0.25878382
240	0xbe71c986	-0.23612031
241	0x3dc4871e	0.09596084
242	0x3f082d49	0.531941
243	0x3ea7c08b	0.32764086
244	0x3eb1daf5	0.34737363
245	0x3ed85dca	0.42259055
246	0x3eb4711e	0.35242552
247	0x3ecc7e88	0.39940286
248	0x3e9ccfd8	0.30627322
249	0xbe9fae4e	-0.3118767
250	0x3ca32ed8	0.019919798
251	0x3e77aa00	0.24185944
252	0x3ebd7a71	0.37007478
253	0x3dcec332	0.10095824
254	0x3d985720	0.07438493
255	0x3f02a8d2	0.5103885

output.weight f4 [6, 256]
0	0x3dadcb64	0.08486059
1	0x3f2f7cea	0.6854998
2	0xbf93e32c	-1.1553702
3	0x3fe4b92a	1.7869008
4	0xbfcc9370	-1.5982494
5	0x3f1a32a7	0.6023354
6	0x3df7d789	0.12101657
7	0xbe9d78e2	-0.3075629
8	0xbe6e9cc1	-0.23301984
9	0x400fd650	2.2474556
10	0x3c1713eb	0.009221057
11	0xbf91d80a	-1.1394055
12	0xbeee6fc4	-0.46569645
13	0xbdb697cb	-0.08915671
14	0xc02738b1	-2.6128352
15	0xbf56a4b0	-0.83845043
16	0xbe76135a	-0.2403082
17	0x3fffd076	1.9985492
18	0x3f3456e1	0.70445067
19	0xbcb02f2f	-0.021506874
20	0x3f085cbf	0.5326652
21	0x3f6b8e36	0.9201387
22	0x3f640618	0.890718
23	0x3f7b8ac5	0.9825862
24	0x3ecd97f5	0.40154997
25	0xbe71d2e6	-0.23615608
26	0xbf808d1a	-1.0043061
27	0x3f923ff2	1.1425765
28	0x3e541aa1	0.20713283
29	0xbeeee1a0	-0.46656513
30	0xbebabba7	-0.36471292
31	0xbea9c089	-0.33154705
32	0xbf4c9c4d	-0.79925996
33	0xbf47daa8	-0.7806802
34	0xbf226cb0	-0.63447094
35	0xbf600cd3	-0.8751957
36	0xbdbdc662	-0.09266354
37	0xc001d8cd	-2.0288575
38	0xbf2e7286	-0.681435
39	0xbf409fd1	-0.7524386
40	0xc001fcfb	-2.0310657
41	0x3f217b92	0.6307918
42	0x3f6d184c	0.926152
43	0xbdf0aacb	-0.11751326
44	0xbe6ea225	-0.2330404
45	0xbfbc885a	-1.4729111
46	0x40111e75	2.267484
47	0xbf0c3486	-0.54767644
48	0x3eb5de95	0.3552138
49	0x3f7e5944	0.9935496
50	0x3f16b63b	0.5887181
51	0xbef42750	-0.47686243
52	0x3f05613a	0.5210148
53	0x3f976f22	1.183079
54	0xbf42a0c7	-0.76026577
55	0x3fbe1846	1.4851158
56	0xbefa8038	-0.48925948
57	0xbfb50b42	-1.4144061
58	0x3fbaca90	1.4593067
59	0x3f36dc9e	0.71430385
60	0x3e84a9f9	0.2591093
61	0x3f920aea	1.1409581
62	0xbf97829b	-1.1836733
63	0x3fbd57f9	1.4792472
64	0xbfb6210d	-1.4228836
65	0x3f195f92	0.59911454
66	0x3f396712	0.724229
67	0x3df7467f	0.12073993
68	0x3e693cfa	0.22777167
69	0xbfd947ca	-1.6975033
70	0xbf02932c	-0.51005816
71	0xbfd964ad	-1.6983849
72	0x3f97482e	1.1818902
73	0xbe505a16	-0.20346865
74	0x3f06c46e	0.5264348
75	0x3eea89f1	0.45808366
76	0x3fb259e9	1.3933688
77	0x4010aa80	2.2604065
78	0x3e4adc1b	0.19810526
79	0x3ea74b65	0.3267471
80	0xbfaa16cc	-1.3288207
81	0x3ec686e8	0.387748
82	0xc03b3ddb	-2.9256504
83	0xbf9eb9a3	-1.2400402
84	0x3f4a7b30	0.7909422
85	0x3f6fc4f6	0.93659914
86	0x3f2803e7	0.65630955
87	0xbfb7a239	-1.4346381
88	0x3f0549dc	0.52065825
89	0x3ea7ced1	0.32774976
90	0xbf3635e3	-0.71175975
91	0xbf45f370	-0.7732458
92	0xbfa9d3af	-1.3267726
93	0xbf48ea5d	-0.7848261
94	0x3ee51f53	0.4475046
95	0xbec3689c	-0.38165748
96	0xbe63289a	-0.22183457
97	0xbf679e2a	-0.90475714
98	0xbeff3242	-0.4984303
99	0x3e66401a	0.2248539
100	0x3f15a72d	0.58458215
101	0x3f07f04d	0.53101045
102	0xbed5fc68	-0.41794133
103	0x3f78c4a7	0.9717507
104	0xbfa6e836	-1.3039615
105	0xbd2cbffd	-0.04217528
106	0x3f4ef428	0.808413
107	0xbfaa198a	-1.3289044
108	0x3f16bfe3	0.58886546
109	0xbfb5114f	-1.4145907
110	0xbf7d8f05	-0.99046355
111	0x3f8a8eeb	1.0824865
112	0x3e987b5a	0.2978161
113	0xc02ed2c4	-2.731614
114	0x3e6deb71	0.23234345
115	0x3f00c3f0	0.50298977
116	0x3f3f5fa7	0.7475533
117	0xbf120f89	-0.57054955
118	0x3f5c6af7	0.86100715
119	0xbcdf7dd7	-0.027281685
120	0xbf83ce01	-1.0297242
121	0x3c9128ba	0.017719615
122	0xbf019749	-0.5062147
123	0xbfb35325	-1.4009749
124	0xbe787d04	-0.2426644
125	0x3f5f29f5	0.87173396
126	0xbf561668	-0.8362794
127	0xbf597bc2	-0.84954464
128	0x3e328bee	0.17436191
129	0xbef6c296	-0.48195332
130	0x3ee65118	0.44983745
131	0xbf5e90e2	-0.86939824
132	0x3ec05b7e	0.37569803
133	0x3f6531b5	0.8952897
134	0x3f01efd9	0.50756603
135	0x3d4b040c	0.049564406
136	0x3f7a88a8	0.9786477
137	0x3f326890	0.696908
138	0x3eadc671	0.3394046
139	0x3f018774	0.5059731
140	0x3fddad59	1.7318527
141	0x3fa545e8	1.2911959
142	0x3eeff358	0.46865344
143	0xbe9e79a2	-0.30952173
144	0x3dadbba7	0.084830575
145	0x401e4a48	2.4732838
146	0x3f94f1c5	1.1636282
147	0x3e8decd8	0.2771976
148	0xbfe9e9c9	-1.827447
149	0x3feb7fbd	1.8398358
150	0xbb458d3e	-0.0030144001
151	0x3e1976f3	0.14986782
152	0x3f8a1708	1.0788279
153	0xbf25c37a	-0.647514
154	0xbe11da80	-0.14243507
155	0xbea9da38	-0.331743
156	0xbf47629b	-0.77884835
157	0x3f2a837b	0.66606873
158	0x3fd623bf	1.6729659
159	0xbf28b596	-0.6590208
160	0x3f8d5857	1.1042584
161	0x3fca8821	1.5822793
162	0x3f7e5c3e	0.993595
163	0xbfd5ae7a	-1.6693871
164	0xbf029396	-0.5100645
165	0xbe3d0526	-0.18458995
166	0x3f367b5b	0.71281976
167	0xbfe3b6fa	-1.7790215
168	0xbfc240ec	-1.5176063
169	0xbf627c1f	-0.88470644
170	0xbd7bfcc3	-0.06152035
171	0x3f2387eb	0.6387927
172	0xbf46599c	-0.77480483
173	0xbde10e2d	-0.10989032
174	0x3fcedb2a	1.6160634
175	0xbeb6176a	-0.3556474
176	0xbfbf44ef	-1.4942912
177	0xbd34d815	-0.044151384
178	0x3fbd3989	1.4783183
179	0xbfc255cb	-1.5182432
180	0x3fafc913	1.3733238
181	0x3eaac367	0.33352205
182	0x3f2d55ae	0.6770886
183	0xbf89e4cc	-1.0772948
184	0x3e9222dd	0.28542224
185	0x3fa28670	1.2697277
186	0xbff6c7e6	-1.9279754
187	0x3f3fa60f	0.7486276
188	0xbd5b95bd	-0.0536096
189	0x3f8787cc	1.0588317
190	0xbf676444	-0.9038737
191	0xbf927a75	-1.1443621
192	0x3f469018	0.7756362
193	0x3ef89a00	0.48554993
194	0x3f2f98d0	0.6859255
195	0x3e80fe79	0.25194147
196	0xbe0d3c04	-0.13792425
197	0x3f883bdd	1.0643269
198	0xbfe8c78b	-1.8185896
199	0xbe81fb2e	-0.25386947
200	0xbead94e3	-0.33902654
201	0xbf4a6c11	-0.79071146
202	0x3f87f150	1.0620518
203	0x3fe3214c	1.7744536
204	0xbe980b67	-0.296962
205	0x3f221cbd	0.633251
206	0x3e762a7b	0.24039643
207	0x3efc5f34	0.49291384
208	0xbf9dae02	-1.2318728
209	0xbdb014da	-0.08597727
210	0x3f85ee43	1.0463337
211	0xbfba0d58	-1.4535322
212	0xbfff8bd8	-1.9964552
213	0xbda616b7	-0.08109801
214	0x4041d18a	3.0284142
215	0xbe38f5bc	-0.1806249
216	0xbfab3a3e	-1.3377149
217	0x3d9d374e	0.07676564
218	0x3fecd1d4	1.8501534
219	0xbd6c2575	-0.05765291
220	0xbfa07a0b	-1.2537245
221	0xbe7f5476	-0.24934563
222	0x3d7dcb07	0.0619612
223	0x3f90ff3d	1.1327893
224	0xbfcbac11	-1.5911885
225	0xbf2a45a5	-0.6651252
226	0xbf30d0b4	-0.69068456
227	0xbe640473	-0.22267322
228	0xbee169f3	-0.44026145
229	0xbf12d3e3	-0.57354563
230	0x3eb2d148	0.34925294
231	0xbf1facc2	-0.6237298
232	0xbd9bf415	-0.07614914
233	0xc010cdd9	-2.262564
234	0xbf85822b	-1.0430349
235	0x3f0ed57f	0.5579452
236	0xbeefd33e	-0.46840852
237	0x3f7f2fa6	0.9968208
238	0xbd72bd85	-0.05926277
239	0xbfc7453f	-1.5568007
240	0x3f749221	0.95535475
241	0x3ed0480f	0.40679976
242	0xbf28cb8b	-0.6593558
243	0x3e0bdc51	0.13658263
244	0x3ec7c663	0.39018545
245	0xbe30cbb0	-0.172652
246	0x3e07ffd1	0.1328118
247	0x3d51724b	0.05113439
248	0xbed107a8	-0.40826154
249	0x3e3acfe2	0.18243363
250	0xbe8283fb	-0.25491318
251	0x3eb81e25	0.35960498
252	0xbff1dd13	-1.8895591
253	0xbddbbf60	-0.10729861
254	0xc011b4b8	-2.2766552
255	0xbf8e5b49	-1.1121608

output.bias f4 [6]
0	0xbe6d7ebd	-0.23192878
1	0x3f1d1a89	0.61368614
2	0x3d81524a	0.063145235
3	0xbe5dcd6e	-0.21660396
4	0x3d391515	0.04518612
5	0x3cc0be22	0.023528162

output_uncertainty.weight f4 [6, 256]
0	0x3c841ef4	0.01612804
1	0x3c4b4240	0.012405932
2	0x3c32f792	0.010923283
3	0x3c61a42a	0.01377205
4	0x3c64ef8c	0.013973128
5	0x3c311dc0	0.010810316
6	0x3c39596a	0.011312822
7	0x3c491076	0.012271991
8	0x3c502e6f	0.012706383
9	0x3c5011e1	0.012699575
10	0x3c55eb3f	0.013056575
11	0x3c407d21	0.011748583
12	0x3c4a1901	0.012335063
13	0x3c33ba6c	0.010969739
14	0x3c51ac6e	0.012797458
15	0x3c4bc211	0.012436406
16	0x3c39a552	0.011330919
17	0x3c438b8d	0.011935127
18	0x3c339a8d	0.010962141
19	0x3c54a2e9	0.012978294
20	0x3c488f94	0.012241263
21	0x3c5fc036	0.0136566665
22	0x3c3d7e53	0.011565763
23	0x3c48dc20	0.012259513
24	0x3c3052a9	0.010761895
25	0x3c5132d9	0.012768471
26	0x3c3dffe5	0.011596655
27	0x3c4c0305	0.012451892
28	0x3c49674a	0.012292692
29	0x3c426c32	0.011866616
30	0x3c4b45af	0.012406751
31	0x3c43726a	0.011929134
32	0x3c4cb44c	0.012494158
33	0x3c35c982	0.0110954065
34	0x3c4faec6	0.012675947
35	0x3c4a91f7	0.012363902
36	0x3c380ccd	0.011233521
37	0x3c4dc3c8	0.012558885
38	0x3c362212	0.011116521
39	0x3c33af9c	0.0109671615
40	0x3c38a2a4	0.011269245
41	0x3c4d964a	0.012548039
42	0x3c8570a3	0.016289061
43	0x3c299553	0.010350543
44	0x3c5e3ede	0.013564793
45	0x3c4feab3	0.012690234
46	0x3c3db2df	0.011578291
47	0x3c44cae6	0.012011265
48	0x3c4f2b2f	0.012644573
49	0x3c3607f4	0.011110295
50	0x3c65fcdf	0.01403734
51	0x3c3cd291	0.011524812
52	0x3c4ae236	0.012383034
53	0x3c52d11b	0.012867237
54	0x3c559e83	0.01303828
55	0x3c5feaad	0.013666791
56	0x3c4777f5	0.012174596
57	0x3c3146b5	0.0108200805
58	0x3c3751cd	0.011188936
59	0x3c61c68f	0.01378025
60	0x3c49baf8	0.012312643
61	0x3c2f066c	0.010682683
62	0x3c41766e	0.011808021
63	0x3c504479	0.012711638
64	0x3c409872	0.011755096
65	0x3c40afa9	0.011760631
66	0x3c435312	0.011921661
67	0x3c4690e4	0.012119506
68	0x3c51acd0	0.012797549
69	0x3c480990	0.012209311
70	0x3c41b5b1	0.011823104
71	0x3c56c769	0.0131090665
72	0x3c46e70b	0.012140046
73	0x3c471762	0.012151571
74	0x3c4dd31e	0.012562541
75	0x3c5b53a7	0.0133866435
76	0x3c61df4a	0.013786146
77	0x3c40c2b0	0.011765167
78	0x3c596e0f	0.013270869
79	0x3c6036b1	0.013684914
80	0x3c49d7b5	0.012319495
81	0x3c74cf3b	0.014941986
82	0x3c30bd8c	0.010787379
83	0x3c3e80b5	0.011627366
84	0x3c351dc7	0.011054463
85	0x3c573c3b	0.013136919
86	0x3c487566	0.012235021
87	0x3c436d1f	0.011927872
88	0x3c34d137	0.011036209
89	0x3c5b5158	0.013386093
90	0x3c3eca48	0.011644907
91	0x3c3759d0	0.011190847
92	0x3c2dceb2	0.010608362
93	0x3c4ba579	0.0124295885
94	0x3c3d1a84	0.011541966
95	0x3c43d3d2	0.011952357
96	0x3c40c28a	0.011765132
97	0x3c37dd9b	0.011222268
98	0x3c3a6e37	0.011378816
99	0x3c4b5ac5	0.012411778
100	0x3c3d8c70	0.011569127
101	0x3c5a29dc	0.013315644
102	0x3c4a06f6	0.012330761
103	0x3c4fd2c0	0.012684524
104	0x3c45b31f	0.012066632
105	0x3c511277	0.01276075
106	0x3c37a4b6	0.011208704
107	0x3c2e3f19	0.010635161
108	0x3c436d44	0.011927906
109	0x3c4ef354	0.012631256
110	0x3c3a0e4d	0.011355949
111	0x3c2f86eb	0.010713319
112	0x3c48082c	0.01220898
113	0x3c408410	0.011750236
114	0x3c487f9c	0.012237456
115	0x3c387084	0.011257295
116	0x3c512f49	0.012767621
117	0x3c444f05	0.01198173
118	0x3c4c8501	0.0124828825
119	0x3c590559	0.013245904
120	0x3c4c90f4	0.012485731
121	0x3c5449ed	0.012957078
122	0x3c532d12	0.012889164
123	0x3c4cdcd5	0.012503822
124	0x3c3fe2c3	0.011711779
125	0x3c373825	0.0111828195
126	0x3c33c469	0.010972121
127	0x3c535329	0.012898245
128	0x3c46a3bd	0.012123999
129	0x3c465c53	0.012106973
130	0x3c70fe05	0.0147090005
131	0x3c4ac6fb	0.012376542
132	0x3c4e1ddd	0.012580362
133	0x3c2c0ed6	0.010501584
134	0x3c3ffb43	0.01171762
135	0x3c4c562c	0.012471717
136	0x3c4fe5dc	0.01268908
137	0x3c4ea038	0.012611441
138	0x3c47d0f7	0.012195817
139	0x3c4f867e	0.012666343
140	0x3c4ac919	0.012377047
141	0x3c3bef8e	0.0114706885
142	0x3c3cd860	0.011526197
143	0x3c4315d6	0.011907062
144	0x3c458987	0.012056715
145	0x3c554e95	0.013019224
146	0x3c35fbfe	0.011107443
147	0x3c427407	0.011868483
148	0x3c42b306	0.011883503
149	0x3c48446c	0.012223344
150	0x3c2f7e75	0.010711302
151	0x3c3fe8b5	0.0117131965
152	0x3c4e8f2f	0.01260738
153	0x3c491adc	0.01227447
154	0x3c3ebbd8	0.011641465
155	0x3c4df38a	0.012570271
156	0x3c31639f	0.010826974
157	0x3c4c9ccf	0.012488558
158	0x3c747c0d	0.014922154
159	0x3c484e12	0.012225645
160	0x3c4886e7	0.0122391945
161	0x3c4786af	0.012178107
162	0x3c656c50	0.0140028745
163	0x3c3227e9	0.010873773
164	0x3c4dda35	0.012564232
165	0x3c406d92	0.011744874
166	0x3c4071b6	0.011745861
167	0x3c3aa9fd	0.011393067
168	0x3c4892ea	0.012242058
169	0x3c34536c	0.011006217
170	0x3c48aa17	0.012247584
171	0x3c48d6a1	0.012258203
172	0x3c498f11	0.012302176
173	0x3c48b31b	0.012249733
174	0x3c37d2d8	0.011219703
175	0x3c48d517	0.012257836
176	0x3c36fa8d	0.011168134
177	0x3c3edc9f	0.01164928
178	0x3c46bc96	0.012129923
179	0x3c43ee40	0.011958659
180	0x3c4a4140	0.012344658
181	0x3c754fe9	0.014972665
182	0x3c3b9b39	0.011450582
183	0x3c3cda8e	0.011526717
184	0x3c52b3e7	0.012860275
185	0x3c606606	0.013696199
186	0x3c2f9381	0.01071632
187	0x3c41fbb4	0.011839796
188	0x3c5297bf	0.012853562
189	0x3c402a30	0.011728808
190	0x3c46a1ae	0.012123508
191	0x3c43042e	0.011902852
192	0x3c3ec7cc	0.011644315
193	0x3c51f3a4	0.012814436
194	0x3c43278f	0.011911287
195	0x3c46be45	0.012130325
196	0x3c5f2c07	0.013621337
197	0x3c4be526	0.01244477
198	0x3c3afb52	0.0114124585
199	0x3c546096	0.012962481
200	0x3c319a4a	0.010840008
201	0x3c3420ca	0.010994146
202	0x3c4b9e00	0.012427807
203	0x3c508657	0.012727342
204	0x3c4b744b	0.012417863
205	0x3c4afdea	0.012389639
206	0x3c3af0bd	0.011409936
207	0x3c497602	0.012296202
208	0x3c4d9577	0.012547842
209	0x3c3fde66	0.011710739
210	0x3c332feb	0.0109367175
211	0x3c3625e7	0.011117435
212	0x3c2d1752	0.010564642
213	0x3c2e2c1d	0.010630635
214	0x3c830439	0.015993224
215	0x3c3eb543	0.011639896
216	0x3c49715a	0.0122950915
217	0x3c51cf90	0.012805834
218	0x3c4f3047	0.012645788
219	0x3c450b00	0.012026548
220	0x3c2a0350	0.010376766
221	0x3c37bad0	0.011213973
222	0x3c59c321	0.013291151
223	0x3c45acda	0.012065137
224	0x3c5666ef	0.013086065
225	0x3c53f34b	0.0129364235
226	0x3c488c2b	0.01224045
227	0x3c4ea87f	0.012613415
228	0x3c3b8a3c	0.011446532
229	0x3c4643da	0.012101138
230	0x3c52fd3d	0.0128777595
231	0x3c40dfd7	0.011772118
232	0x3c4c96bd	0.012487111
233	0x3c3354df	0.010945528
234	0x3c427a28	0.011869945
235	0x3c479a10	0.012182727
236	0x3c39b17e	0.011333821
237	0x3c564b51	0.01307948
238	0x3c47a0db	0.012184347
239	0x3c378816	0.011201879
240	0x3c445f7c	0.011985656
241	0x3c37972f	0.011205479
242	0x3c330233	0.010925817
243	0x3c4f6f36	0.012660792
244	0x3c5782d5	0.013153751
245	0x3c461677	0.012090317
246	0x3c54a219	0.0129781
247	0x3c50dc08	0.012747772
248	0x3c4ebc80	0.012618184
249	0x3c32b5b6	0.010907581
250	0x3c5f463e	0.013627587
251	0x3c4628d2	0.012094693
252	0x3c4a3b93	0.012343305
253	0x3c545386	0.012959367
254	0x3c3f90a3	0.011692199
255	0x3c481c46	0.012213772

output_uncertainty.bias f4 [6]
0	0x3c41bd45	0.0118249105
1	0x3c2d482c	0.010576289
2	0x3c38f6b8	0.011289291
3	0x3c32aef8	0.010905974
4	0x3c3c119d	0.011478809
5	0x3c38f2ff	0.0112884035
