ckp/edac-halfcheetah-medium-v2-230227-160141/actor-final.pt (torch, 296887 bytes, 8 tensors)

hidden.0.weight f4 [256, 17]
00000000: c4bd 1340 3411 94c0 3dee 123d e858 13bf
00000010: 2b86 d63c 34be ef3f 14a0 6fbe 1248 4d3f
00000020: 530f 5b3d 4419 b53e 4c27 493f 75eb 1abe
00000030: 04fe 86bb 2af0 b63d af7c b43c 2dc6 83bb
00000040: 4880 21bc c589 0141 5445 18c0 1833 1fbf
00000050: 70e1 1bbe 0c41 933e 31d9 84bc 3903 94be
00000060: 957e 973d 1321 f33c e96f f83d d21d 853f
00000070: 22ac 2cbc 8bf2 e93d 4e9f 183e 9f33 033e
00000080: 8039 4f3d 69f5 fdbb 7bd3 9a40 062f d0bf
00000090: a96d cabe 8198 15bf 0895 5ebf a488 36bf
000000a0: cba1 23be 0278 11bf c968 5bbd 1b65 883f
000000b0: ec85 13bf b660 983d de56 78b9 080a bfbd
000000c0: 5541 c6bc 9d7a f2bd b1eb e7bd eae5 8540
000000d0: ed0f b83f 442d 9040 fd87 2240 88c8 893f
000000e0: 8b2b 5f3f 8eb4 60be bdff b93e 44ed 333e
000000f0: 0d75 e73f 410f 073f cd2c 833e 2d0a 063e
00000100: 2196 07bd 477e cebd ba8a 04be 84c2 a2be
00000110: ff98 d23f a2ba 55c0 8be9 f6bf 881c c1bf
00000120: 685d 81bf d1ab 0bc0 96aa 86bf d522 3c3f
00000130: 92a7 89be f2e6 e6be d96a 8b3e a8e8 07bd
00000140: befb 8f3d 632f c6bc 14bf 3b3b 30a0 323d
00000150: acf1 b73c 4c29 c540 bc8e d03f 7ce6 103f
00000160: 3f30 173f d33b 083e 92c3 013f 52a6 92bd
00000170: d036 67be ac3b db3d 1d09 e73c 1bd5 b93e
00000180: e395 15be dfaa 04be 12ab 063e dd3f 343d
00000190: 9c35 b5bd 2e6f 0e3d 54c1 21c1 8d40 3d40
000001a0: 36f9 0e3f 9821 883e 7d79 c5bd caba 1cbf
000001b0: 6638 18be 0aa4 dfbe 0afa 053e 4b71 39bf
000001c0: 7ab1 b33e 847e 023e 101d 2c3d 8769 243c
000001d0: a10f 1a3d 2814 e43d 333e e33c d32c 1341
000001e0: 7274 003d 4d3d 09be 51c3 163f e053 ba3e
000001f0: 3fc9 273e 52df 3a3f d19a 8ebe 04aa 77be
00000200: a65f 063f 8caa 513f 4eef 70be 220b 34bd
00000210: 43c5 e6bd 79bc bf3e fb47 313e 1fc0 063c
00000220: 8def f93f 48d8 b13e 1c79 0f3e f596 663f
00000230: 28fa ef3d 6156 3ac0 15db 1cbf ca3e 80bf
00000240: fa2e 0abe d8b5 963f cf20 123e 23b2 503e
00000250: 5146 46bd 2fe9 0c3c 39d3 4abd 8667 e93d
00000260: 8dfa 793d f254 d2be 5e2b d83f 92a6 ecbe
00000270: 129b 8b3d 895a be3e e5e2 c03f 5e0c 4b3f
00000280: 06f6 9a3f 24aa bbbe f33e 0dbf e970 8dbd
00000290: 71ab 9cbe 4108 02bd 273d 753d 5331 93be
000002a0: 23df 633e 901f 683e 8979 1dbf 59fb 01c0
000002b0: 3eb2 a7bd c73c 45be d268 8c3f 44f4 ea3e
000002c0: 8fe8 5fbe 00d4 99be 3a54 84be 1b07 5e3f
000002d0: 4fcd e63d 4565 8d3e 3c93 033e 6b62 713e
000002e0: 9610 273d a02b b63b 9839 6ebc 3eca d740
000002f0: 0ff2 27bf 3748 2ebf 1b31 a3bd 3fdd 84bd
00000300: 8f7c 0b40 3991 52bf 1d0f 04bf 4d5e 19be
00000310: 1d8c 03bf 193c 053e 93c3 c63d 22af c53a
00000320: f907 143e ebcb 923d 9a4a df3d 88a1 2b3e
00000330: 320e 1ebf 1372 d540 9922 333e 6379 563f
00000340: 82a1 3f3e 0287 f93f 95f9 8dbe e0a9 1dbf
00000350: db46 d03d b871 273e b3c5 263e 4e4c 0b3c
00000360: bf5c d13d 2a33 e7bc 9538 a1bc 8cf0 f63c
00000370: 0619 833c 09e5 1d41 d940 573f 8068 b5bd
00000380: 290c 3ebe dcac f8bc 26e1 61bf 3d08 a23c
00000390: db79 c73d 201e d53d 69c3 b53f 4bb3 023f
000003a0: 1629 78be 8777 b13d e226 713d 5ac3 a03c
000003b0: 8555 4a3e 25d5 763c 5473 933f 735b 82bf
000003c0: cf25 0440 e293 c43f 3fd2 c4bc fd34 c53f
000003d0: a561 31bf 0271 9a3e 703b 10be ef1d 003e
000003e0: 2df6 863c 516b 173f f3d8 823e b6e7 e0bc
000003f0: 8ba4 85be 98d7 bfbd 12b4 f9bd 3bd2 10c0
2.3084574 -4.6271 0.035871733 -0.57557535 0.026187023 1.872992 -0.23400909 0.80188096
0.05348141 0.3537084 0.7857559 -0.15128882 -0.0041196365 0.089325264 0.02203211 -0.004021427
-0.009857245 8.096135 -2.3792315 -0.6218734 -0.15222716 0.28760564 -0.016216846 -0.2890871
0.073971905 0.029678857 0.1213072 1.0399725 -0.010539087 0.114232145 0.1490452 0.1281266
0.050591946 -0.0077502024 4.8383155 -1.626435 -0.3953679 -0.5843583 -0.86946154 -0.7130225
-0.15979688 -0.5682374 -0.053566728 1.0655855 -0.57626224 0.07440321 -0.00023683484 -0.09328085
-0.024201075 -0.11839793 -0.113242514 4.1843157 1.437986 4.5055256 2.53955 1.0764322
0.87175816 -0.21943876 0.36327925 0.17570978 1.8082596 0.5275765 0.25620118 0.13089819
-0.03310216 -0.10082679 -0.12943545 -0.3178903 1.6452941 -3.3395162 -1.9290022 -1.5086832
-1.010663 -2.1823618 -1.0520809 0.7349065 -0.26885659 -0.45098072 0.27229956 -0.033180863
0.07030438 -0.024192518 0.0028647827 0.043609798 0.022454105 6.161291 1.6293559 0.5660169
0.5905799 0.13304071 0.5068904 -0.07160629 -0.22579503 0.10704741 0.028202588 0.362954
-0.14607958 -0.12955807 0.13151196 0.044006217 -0.08848116 0.034773998 -10.109699 2.9570649
0.55849016 0.2658813 -0.09642313 -0.6122252 -0.14865264 -0.4367984 0.13083664 -0.72438496
0.3509634 0.12743574 0.042019904 0.010034925 0.03761256 0.11136657 0.02773962 9.198443
0.03136105 -0.1340229 0.5889178 0.36392117 0.16385363 0.7299701 -0.2785249 -0.2418595
0.524897 0.8190086 -0.23528787 -0.04395593 -0.112680934 0.3744848 0.17312615 0.008224516
1.952623 0.34735322 0.14011043 0.9007409 0.117176354 -2.9115222 -0.6127179 -1.0019162
-0.13494483 1.1774244 0.14270328 0.20380454 -0.048406903 0.008600517 -0.049517844 0.11396699
0.06102996 -0.41080433 1.6888235 -0.46220833 0.06816687 0.37178448 1.5069243 0.79315746
1.210633 -0.36653244 -0.5517418 -0.069063015 -0.3059955 -0.031746153 0.059872773 -0.2874857
0.22253089 0.2266829 -0.6151357 -2.030966 -0.08188294 -0.19261466 1.0969489 0.45889485
-0.21866058 -0.30044556 -0.2584551 0.8672959 0.11269628 0.27616325 0.12849134 0.235727
0.040787302 0.0055593997 -0.014540099 6.743438 -0.6560373 -0.6807894 -0.079683505 -0.06487512
2.1794775 -0.8225284 -0.5158556 -0.14977379 -0.5138567 0.13011207 0.097052716 0.0015082101
0.14456166 0.071678005 0.10902901 0.16760838 -0.6174041 6.670175 0.17493667 0.8377897
0.18713954 1.9494326 -0.27729478 -0.61587334 0.101697646 0.16351974 0.16286354 0.008502079
0.10222768 -0.02822264 -0.0196803 0.030143999 0.016003143 9.868417 0.84083325 -0.088578224
-0.18559326 -0.030355863 -0.88234174 0.019779319 0.09740039 0.104061365 1.420026 0.5105483
-0.24234423 0.08665376 0.058874972 0.0196244 0.19759186 0.015065466 1.151957 -1.0184158
2.0648077 1.535763 -0.024026034 1.5406796 -0.6928962 0.30164343 -0.14085174 0.12511419
0.016474808 0.59148127 0.25556144 -0.027454238 -0.261021 -0.09367293 -0.12192549 -2.2628314

hidden.0.bias f4 [256]
00000000: c20e eebd 5295 f03d 2b35 af3f bb68 a6be
00000010: fd15 e53e 487c 80be 6785 30be 1ca4 08be
00000020: b922 d03d 0926 043f a722 96bf 8ead 813e
00000030: e51d 093f cbbb 823c ba8c 1ebf 8913 17be
00000040: 6693 613b 0d40 4f3d ea30 363e 34eb 50bf
00000050: d9d6 14bf 1e3f 41be 9f04 723e f0df b4be
00000060: 4889 9c3b db81 883e b688 bbbe 3a65 34bf
00000070: 08ec 47be d983 23bc c893 7c3c be1d 08bf
00000080: 4723 19bf 2479 02be 2ab3 8f3f 5993 303f
00000090: 05a4 063f 553e 093f 8f00 d3be 0261 b3be
000000a0: 9b8e 9a3f 6e90 3a3e 0235 0cbe 8237 88be
000000b0: dc6b d93e ae73 553f da68 e33d aad4 b73f
000000c0: a3ac 4d3e 6ef7 303f 9bb7 003e 221c cdbf
000000d0: 3b5b 683f db38 bf3e 4f79 bd3f 6124 19be
000000e0: 1b78 d13e 59be 74be 49a5 a6be 5103 22be
000000f0: d31e 663d 24e7 9abe 3f82 373f cc82 4cbf
00000100: e035 04bf 6915 48be 75bc 09bf ac19 19bd
00000110: eaa2 293f 6e21 f2be c998 36be 9097 1f3f
00000120: 99e0 fdbe 3cfa bfbd 651f 05be 6792 4bbe
00000130: e935 103f efe0 4c3f dbcb 5cbf b84f 853f
00000140: 8a97 ba3e 18c5 293f 04e4 e33e b60c 003e
00000150: 8e2c 9d3e df86 71be 8b7a 833f bb6f 88bf
00000160: 0ae8 853e 229e 503f 8c0b d2be d281 043e
00000170: a843 8ebe cbcf 443f 046f 94be 1464 a83e
00000180: 1619 683f 83af e1be db20 86bf 7626 70bf
00000190: 55e2 ef3e 2794 e9be 0877 cdbe 4312 4f3f
000001a0: 0f98 133f 624c f4bc 7025 74bd 251d 1abf
000001b0: 1350 17bd a906 d1bd 904e 543d 05c9 1a3f
000001c0: e991 003f 78b7 f73e 96ca e1be 4745 3ebf
000001d0: c044 cbbd 390f 5c3f 08c1 03bf e34d 063f
000001e0: fc26 d23e 41b6 49bf 0ea8 a83f ce40 f9be
000001f0: a742 c2be 0a37 c6bd 3468 623e fb2c c43e
00000200: e270 da3e 9b03 a83f a7ff 903e 1e43 1f3f
00000210: 706c 93bd 338c 81be 4f78 36bf 6de4 b2be
00000220: 87d6 d73e 88ed 7e3d 83ee 9d3f 693a 5d3f
00000230: 47f5 83bd 9bb3 a0be 2646 513e 878f c6be
00000240: cd21 e33e 2a04 e13e d48e 9c3e 2874 033e
00000250: 8af3 3fbf 372d 39bd 641d 68be 0c6d 2f3f
00000260: c6e2 a9be b790 ac3f 4784 47bf 8073 fdbe
00000270: 5e49 aa3d b6d9 493f 2b4d 063f aba8 403e
00000280: 4957 4dbe 4a90 113f c16d 8a3e 6e20 6f3d
00000290: 108f 05bf f562 5c3f 0e5e 2a3f d8aa 803f
000002a0: e6f3 803f cf15 873f c50b 733f c0bf f6be
000002b0: 4c2c 733f dee1 1bbe 0b30 3f3d eb07 3e3f
000002c0: af13 5bbf 997f a3bd 5d02 33be ace0 f83e
000002d0: 0df0 9e3f 1ad3 6d3f f71f 68be fed9 8c3e
000002e0: 67c1 183f 03aa c9be dfe4 783f e0d8 1e3f
000002f0: 9a5c ecbe 69d2 8e3d aa13 a93e f96b 903f
00000300: 35e2 01bf 7b99 f5bc ea5a 9e3f 6899 95bd
00000310: d324 dc3e 03f2 453f 521e 3b3d 558d 943f
00000320: ad33 65bf 6e32 9d3d a724 92bf e23e 2dbf
00000330: f4dd 20bf 253c 05be 4e14 acbe 3f18 193b
00000340: 73e4 febd ae08 fd3e c036 42bf 0e67 943e
00000350: 311c afbd f56c f7bd 396c ba3e 8576 863f
00000360: 6d4d 4d3f 5679 3b3f 47b5 c13e 9624 82be
00000370: 8236 4e3d 8702 d43e e42e 243f be93 5d3f
00000380: 44bc 073f 49b8 ebbe 4cdb 3fbe a043 443e
00000390: 1016 8f3e fb01 843f a999 aa3f 89bf 31bf
000003a0: e614 213f 900b 13be b25e 453f 2601 e13d
000003b0: e1b4 c2be 4fb2 31bf fbda d93e f0c3 ea3e
000003c0: 1d00 ec3c f202 0bbf 06b1 d43f a248 713f
000003d0: 750c 8c3e 2101 163f 4ce4 333f 9978 c4be
000003e0: 059d 543f 5364 c03e 1562 693e 9198 c4be
000003f0: 566c 41be 7339 043f 6de1 aabe 50b3 5a3e
-0.116239086 0.117472306 1.36881 -0.32501778 0.44743338 -0.2509482 -0.17238389 -0.13343853
0.10162873 0.5162054 -1.1729325 0.25327724 0.5356124 0.015958687 -0.6193348 -0.14753546
0.0034420132 0.050598193 0.17792097 -0.8160889 -0.5814033 -0.18871734 0.23634575 -0.353271
0.0047771074 0.26661572 -0.3662774 -0.7046696 -0.19523633 -0.009980165 0.015416093 -0.5317038
-0.59819454 -0.12741524 1.1226552 0.68974835 0.52594024 0.53610736 -0.41211364 -0.3503495
1.207477 0.18219158 -0.13692096 -0.2660485 0.42465103 0.8337964 0.11103983 1.4361775
0.20085387 0.6912755 0.1257004 -1.602421 0.90764207 0.37348065 1.4802645 -0.14955284
0.40911946 -0.23900737 -0.32547978 -0.15821578 0.05618174 -0.3025447 0.71683115 -0.7988708
-0.51644707 -0.19539417 -0.5380319 -0.037378 0.6626421 -0.4729113 -0.1783172 0.6234064
-0.49585417 -0.093739 -0.13000257 -0.19880067 0.5633226 0.8003072 -0.8624856 1.0414953
0.3644374 0.66316366 0.445099 0.12504849 0.30698055 -0.23586605 1.0271772 -1.0659097
0.26153594 0.8149129 -0.41024435 0.12940148 -0.27785993 0.76879567 -0.28990948 0.32888854
0.9066328 -0.44079217 -1.0478777 -0.93808687 0.46852365 -0.45620844 -0.40129876 0.8088724
0.576539 -0.029821578 -0.059606016 -0.6020072 -0.0369416 -0.102063484 0.051832736 0.6046298
0.5022264 0.48382163 -0.44099873 -0.7432446 -0.099252224 0.8596073 -0.5146642 0.52462596
0.41045368 -0.7879372 1.3176286 -0.48682255 -0.37941477 -0.096784666 0.22110063 0.38315567
0.42664248 1.31261 0.28320047 0.6221179 -0.07198417 -0.25302276 -0.71277326 -0.349399
0.4215586 0.062238246 1.2338413 0.8641725 -0.06443267 -0.31387028 0.20436916 -0.38781378
0.44361725 0.4394849 0.3057772 0.12837279 -0.74980986 -0.045209136 -0.22667462 0.6852577
-0.33180827 1.3481663 -0.77936214 -0.49502182 0.08314775 0.78847826 0.524615 0.18814342
-0.20052828 0.5686079 0.2703686 0.058380537 -0.5217142 0.86088496 0.66549766 1.0052137
1.0074432 1.055353 0.94939834 -0.4819317 0.94989467 -0.1522288 0.046676677 0.7423083
-0.8557691 -0.07983322 -0.1748137 0.4860891 1.2417008 0.9290024 -0.22668444 0.27510065
0.5967011 -0.3938752 0.9722423 0.62049675 -0.461644 0.06973726 0.33022815 1.1282951
-0.5073579 -0.029980412 1.2371495 -0.073046505 0.42996845 0.77322406 0.045683213 1.1605631
-0.89531976 0.07675634 -1.1417435 -0.67674077 -0.62838674 -0.13011225 -0.3360924 0.00233604
-0.12445917 0.49420685 -0.7586479 0.28984874 -0.08550299 -0.12081329 0.36410692 1.0504919
0.8019627 0.7323202 0.37833616 -0.25418538 0.05034495 0.41408178 0.6413405 0.8655356
0.53021646 -0.46039036 -0.18735999 0.19166422 0.2794652 1.0313104 1.3328143 -0.69432884
0.62922513 -0.1435988 0.7709762 0.10986547 -0.38028625 -0.694127 0.4254988 0.45852613
0.028808648 -0.5430137 1.6616523 0.94251454 0.27353254 0.5859547 0.7027023 -0.3837326
0.8305209 0.3757654 0.22791322 -0.3839765 -0.18888983 0.5165016 -0.3337511 0.21357465

hidden.2.weight f4 [256, 256]
00000000: 0a07 8e3e 1cae 9c3e 4159 b2be 7458 243f
00000010: 4a9f 7a3d 5dc2 a33d 66f5 f2be b4ce 013f
00000020: bedd babe e6a0 483e 95a0 8dbf b197 d73e
00000030: cd55 0cbe 90e2 533e bc8b 453d fef8 9abe
00000040: d622 13be 6e04 ad3e cd54 203e 64a1 39bf
00000050: f053 d8be b2ae d23e 4493 53be c442 72bf
00000060: 8aef 063e eb4d b9be f15d 4c3f bd74 81be
00000070: 0db6 2c3e 25db 39be 8853 2f3e 8872 b3be
00000080: 7997 ab3e 5b64 8d3e 1e77 5fbe f1fb 913e
00000090: 1131 27be 91f7 823e a438 583e bdc8 053e
000000a0: 2a64 473e d0a0 e53e 699b a9bd 004a 173f
000000b0: 69f6 28be e096 c5bd 50bc 99be db2b 163e
000000c0: 2e63 75be dac4 9a3e ac25 4f3f 2093 903e
000000d0: 6922 94be df04 47be fc1a 7bbe 75bc cebe
000000e0: 8a64 703f 91f0 763d ed3e dcbd 50fd a03e
000000f0: 0b70 a63e 4aa3 503f 0391 8d3e 94eb 27be
00000100: 68bb 913d 4a93 b3be 03ee 8c3d 7ecf 813f
00000110: 2701 b3be 2826 b3bd a030 aabe 7290 3c3f
00000120: 38cd c8be ed25 bdbe 8485 65be 1e14 bc3e
00000130: 2b11 dd3e 7778 bcbd fc9d cb3e 9511 62be
00000140: 4608 21be 8a1a 8fbd c25a 39be 2108 fd3e
00000150: cbd6 debd 34cb a93e 6bed c23d b7a8 003d
00000160: 1db7 003e 3bb7 fe3e fdcb 91bd ded0 b23e
00000170: d6f5 913e 16f3 1b3d 40c5 06be bb66 76be
00000180: 3342 31bf 05b6 debd 4898 213d cef2 3b3e
00000190: 177c 38be 7668 ae3e f68d 66be 4019 87bd
000001a0: 777c 033e 6185 b7be a61b ebbe 75b9 f6be
000001b0: f4a5 0abf 69f8 24bf 8ad3 9a3e 5666 463e
000001c0: 9b6a 24be 0af5 cfbe 04d5 a83d 10cd ff3d
000001d0: 7398 a2bc 2ff9 4cbe eb8e 5e3d 8958 353e
000001e0: 625d b3be 366d 48bd c1d5 75bf aa8a 5239
000001f0: b5c8 a5be 6b92 a2be d15e 11bf addf cc3e
00000200: f38b 9cbe 5f97 1fbe dc9b a6be 0654 a23e
00000210: d920 0abe ad8a 213e afe2 99be 677a c13e
00000220: 68be 163f 9b7c c4be 1be8 db3d c9b0 573d
00000230: 8474 7ebe d2f9 08bf 7cb7 fbbe c7a3 11bf
00000240: 6512 d93d 8ffe cfbd cbac 64be 389d bdbe
00000250: 8c88 a03e 5d79 3a3f c437 09bf d3be c23d
00000260: 300a 06be f648 a23e 4bf2 13be b752 f83c
00000270: 1b82 b7be 767b 2ebf 1639 06bf 3486 84bd
00000280: 8b52 953e c8a1 1bbf 7dbd 4f3e 131b 4bbe
00000290: 66ad dd3d 2008 0d3e 7c17 8a3d 4e77 3c3d
000002a0: 9b99 a5bd 60a5 7ebd 23ec 2cbf 6e21 923d
000002b0: f640 1abe 44e8 963e 03de 80be 8667 20bf
000002c0: 3fdd 683e 6104 e0bd 5ad6 183e 4e4a 81bd
000002d0: 5058 363e fa1b 90bd cac9 b63e 806d fcbe
000002e0: fe5e 263f 36b7 fb3d 72c2 513e 0ffd bc3e
000002f0: 9fc6 233f 90c7 603e c9aa cb3d 5699 82be
00000300: e209 dcbc 756f 93bf 35db 0abf 1d0c bd3e
00000310: 2887 85be 44ad 493d 2a0f cfbd ebb3 00bd
00000320: fdcd 423f fc93 9dbe 1d8a e2be 42f6 0bbe
00000330: 569c 803e 0d50 173f 7a23 0c3e b66d 29bd
00000340: d11e 87bd e0a8 88bd 8723 74be 2e69 573f
00000350: 8bfc ec3d 67bb b53c 5052 f43e 1f13 803e
00000360: 6ba2 913d e3b1 3fbe 6832 873e d53b 1dbf
00000370: bb4b 783e dde2 863c c8ee 173f a77e 80bf
00000380: ada5 c63e 22d2 71be 0a69 d4be 62f4 453f
00000390: 7663 aabe 0de8 c5bd 5290 063e 2410 7fbe
000003a0: 0c4b 51bd 8560 9cbe afa8 a6bd 1eae 2b3d
000003b0: 6ebb f13d c072 ae3e 188b 8a3e aa4e e1bd
000003c0: a8f7 a0be bc90 963c 6db6 dfbe 23ca 22bf
000003d0: dde3 e4be 3741 c23e 7651 a8bc fbe5 153f
000003e0: 427b 6fbe 9aa3 8abe 225c 93bd b3da 103f
000003f0: d953 5fbe 6d53 0f3d f6e0 92be 5eb8 6c3f
0.27739745 0.30601585 -0.3483372 0.6419747 0.061187066 0.07996056 -0.4745285 0.5070603
-0.364973 0.19592628 -1.1064631 0.4210792 -0.13704605 0.20691895 0.048228964 -0.3026809
-0.14368758 0.33792442 0.15657349 -0.7251189 -0.4225154 0.41148907 -0.20661646 -0.94633126
0.13177314 -0.3619226 0.79830843 -0.25284377 0.16866322 -0.18150003 0.17121708 -0.35048318
0.33514002 0.27615628 -0.21822783 0.2851253 -0.16327311 0.25579503 0.21115357 0.13064857
0.19471803 0.44849253 -0.08281595 0.5909729 -0.16500248 -0.09647918 -0.30026484 0.14665167
-0.23963615 0.3022831 0.8091686 0.28237247 -0.28932503 -0.19435452 -0.24522012 -0.40378156
0.9390341 0.060288016 -0.1075419 0.31443262 0.32507357 0.8149916 0.27649698 -0.1639846
0.07115823 -0.3507331 0.06881335 1.0141447 -0.34961817 -0.08747512 -0.33240223 0.73657906
-0.3921907 -0.36942998 -0.22414213 0.36734098 0.4317716 -0.09202664 0.3976897 -0.2207702
-0.15725812 -0.06987484 -0.18101028 0.49420264 -0.10880812 0.33162844 0.0951794 0.0314109
0.12569852 0.4974917 -0.07118986 0.34924978 0.2850787 0.03807362 -0.13161182 -0.24062626
-0.69241637 -0.10874561 0.039451867 0.18354341 -0.18016087 0.34064072 -0.22515091 -0.06596613
0.12840448 -0.35843948 -0.45919532 -0.48188367 -0.54159474 -0.64441544 0.30239516 0.19374976
-0.16056292 -0.40616637 0.082437545 0.124902844 -0.019848084 -0.20016931 0.054335516 0.17709555
-0.35032183 -0.048932277 -0.9602929 0.00020078817 -0.3237969 -0.31752333 -0.56785303 0.400144
-0.30575523 -0.15585087 -0.32540786 0.3170473 -0.13489093 0.15775557 -0.30055758 0.37788698
0.58884287 -0.38376316 0.1073763 0.05265883 -0.24849135 -0.53506196 -0.49163425 -0.5689053
0.105992116 -0.10155975 -0.2233154 -0.3703401 0.31354177 0.72841436 -0.53600717 0.09509053
-0.13089824 0.3169629 -0.14447896 0.030312879 -0.3584145 -0.68157136 -0.52430856 -0.0647091
0.29164538 -0.60793734 0.20287128 -0.19834547 0.10824089 0.1377263 0.067427605 0.046012215
-0.080859385 -0.062169433 -0.67547816 0.071352825 -0.15063843 0.2947408 -0.25169381 -0.62657964
0.22740649 -0.10938335 0.14925519 -0.063130006 0.17807126 -0.07036586 0.35700828 -0.49302292
0.64988697 0.12290804 0.20484331 0.36911818 0.63974947 0.21951127 0.09944684 -0.2550761
-0.026860181 -1.1518389 -0.54240733 0.36923304 -0.2607968 0.049237505 -0.10110314 -0.031421583
0.76095563 -0.30776966 -0.44245997 -0.13668159 0.25119275 0.5910652 0.13685408 -0.041364394
-0.06597675 -0.06672835 -0.23841678 0.84144866 0.11571606 0.022184087 0.4771905 0.25014588
0.07111057 -0.18720202 0.26405644 -0.6141942 0.24247639 0.016465599 0.59348726 -1.0038651
0.38798276 -0.23615316 -0.41486388 0.77326024 -0.33279008 -0.09663401 0.13140991 -0.24908501
-0.05109696 -0.3054239 -0.081376426 0.041914098 0.118033275 0.34071922 0.27059245 -0.11001332
-0.31438947 0.018379562 -0.43693867 -0.63589686 -0.44705096 0.3794038 -0.020546656 0.5855405
-0.23386863 -0.27077943 -0.07195307 0.5658371 -0.21809329 0.03499167 -0.28687257 0.9246882

hidden.2.bias f4 [256]
00000000: 4fc7 71be 5164 863f 6670 9bbd f879 a2be
00000010: a1e4 7fbd 3a18 35bf b872 d83d ba62 a5bd
00000020: e046 373f b87a 493c 99d1 303f 2d3a 8f3e
00000030: 08c6 053f b78e 1fbf 6ef4 223d 935c 263f
00000040: 552b 49be 80e6 4ebf 8d48 adbe acb0 2bbf
00000050: cce9 c93b 603b ee3e 86f0 ccbe a93c 7c3e
00000060: 67f2 9d3f ec09 353c f801 84be 9de9 5c3f
00000070: d5c7 f0be bd83 1cbf 3a69 37bf 64a9 123d
00000080: aae7 83bf 42d2 2f3d 74d7 af3e 562a 473f
00000090: 5dd3 d53e 35f5 9dbe d341 cf3b 1a03 753f
000000a0: 2614 edbe f4a5 9d3e a13b c83e d286 583e
000000b0: 35a5 5dbe e98e 833f b9fa 09bd 7979 4e3f
000000c0: d2a7 1abe cc2e 803f 6338 633f ab08 453f
000000d0: eaf8 e33d 95e7 a63e 5ae9 34be 6e1e 1dbd
000000e0: da5f 09bf f57c c7bd 4465 ee3d c1c1 a33e
000000f0: 0b2d 5c3f df30 39bd 73c5 c9be 30ed 2bbe
00000100: d32b aa3e d4a4 3a3f c993 153e 3139 cb3f
00000110: 98dc 8b3e e952 ae3f 35b7 b3bb 59c8 653e
00000120: 582d fd3b b7f6 b03e 52a9 8e3e b720 173e
00000130: aa9b 083f 3862 cebe b8e6 34bf 730d 0a3f
00000140: be8b 353f 7df8 7a3e 1ce7 373f 524e 263e
00000150: 27f8 503c 0998 60bd 20d0 95be 4944 11be
00000160: 15cf fb3e d615 163f cb2c 3fbe aefc dd3e
00000170: 7c9b 94be 01e4 d9be 9e55 1b3f 0b5d 55be
00000180: ac87 95be c36e f93e a189 073d 2368 82be
00000190: ee8d 643f 59d4 b93e bcd2 f73d 3a8f 833d
000001a0: f3bc 0bbf 7f06 0a3f 5627 8ebc 09f7 af3e
000001b0: e107 503e 334b 113e 9064 3abe 5923 63be
000001c0: 595c 443f f769 cabe 99f7 953d 7113 b4be
000001d0: 4ed2 183f 77f5 1ebf 7b07 5ebe a9aa 85bf
000001e0: 9517 41bf dde2 4bbe 1f67 dabe 9955 5e3f
000001f0: e1f8 ef3e 35ab 15be 3be6 21bd d4fd a73e
00000200: 2911 2b3f e342 16be 1356 c13e 2a2e babd
00000210: 930b ab3b 5414 863e 0358 543f 1f10 5e3f
00000220: b35e bd3e 7442 343e 347b e2bd 9379 b7be
00000230: 6491 01bf 2b7f 993e 1642 0dbe 3aa9 07bb
00000240: 14f9 3d3e 3114 e5be de9f b43e 90c4 1ebf
00000250: 1015 80be 6086 82be 1f9d 69be 461f d4be
00000260: 3a2e 38bf 0fe4 07bf 0dcb 693f 2d09 25be
00000270: 331d 883f 0e50 8d3e 49de 11bf 8bf5 16bc
00000280: 0d56 20be d41f 153e f8c5 613f c9b2 993f
00000290: 35c1 e53e a7c7 423e 7945 f63c eeda 4fbe
000002a0: 344b bbbe 1088 dd3c 02bc ad3d f62a 363f
000002b0: 8668 283f 3d9c 14bf 3da8 0dbe 2488 6b3f
000002c0: 9c52 13bd 8c23 9a3e 4b76 71bf 922d a53f
000002d0: 9fb0 ea3e caa5 b63d 4f5b febe 7317 bbbc
000002e0: e7bf 7bbe b57b cb3e 9483 86bc bc94 843c
000002f0: 7c48 3a3e 0050 3ebf a503 0a3f b979 a13e
00000300: a48c ef3e a125 ebbe 6e6f d1be 1914 843f
00000310: 1dbf 2fbe 661f d4be 58ed a93e 95da 1c3f
00000320: d19d 7ebf 9850 e9be 8411 c73e 74cb 823e
00000330: 19ed 6a3d 12d6 4ebe dc11 a93f a6b8 c7bd
00000340: 52f9 e7bd d8ca c8be 4428 cd3e d364 203e
00000350: 7760 e03e ad47 2b3e 42d7 35be 6bdf c03e
00000360: 8c68 b23e 4d9e 633f f96d 363f 1059 593f
00000370: 0f07 79bd 1e02 463e 6451 353f 6001 8a3d
00000380: cd07 36bf a5a5 35bf b1ee f4bd a6a0 3a3e
00000390: 4f02 9d3d 1a68 ae3d d7bb 1e3f 05f2 3e3d
000003a0: 6103 e83d 8f70 483f 1d91 4c3e 6739 2a3f
000003b0: c4f9 48bf 0838 9fbe ff71 97bd 3354 fe3e
000003c0: 9cc2 4fbf f21d ea3e 125b a33f 0c95 fbbe
000003d0: b759 c1bd 43b5 ae3f 6d82 b6bd 5d66 09be
000003e0: ae2f 323f abc1 07bd a133 70be 3aa2 9cbd
000003f0: 73ce 493e a0d8 49be fbec 85be a2c8 7ebe
-0.23611186 1.0499364 -0.07589798 -0.3173368 -0.062473897 -0.7074009 0.10568756 -0.08075471
0.7159252 0.012297325 0.6906982 0.27974072 0.52255297 -0.6232714 0.039783888 0.6498501
-0.19645436 -0.80820465 -0.33844414 -0.67066455 0.006161904 0.46529675 -0.40027255 0.24632515
1.23396 0.011049729 -0.25782752 0.86293966 -0.4702746 -0.61138517 -0.7164494 0.035806075
-1.0305073 0.042925127 0.34344065 0.77798975 0.4176282 -0.3085114 0.0063249855 0.9570786
-0.46304435 0.30790675 0.39107993 0.2114518 -0.21645053 1.0277988 -0.033686373 0.806541
-0.15103081 1.0014281 0.88757914 0.7696635 0.11131461 0.32598558 -0.17667142 -0.038359098
-0.5366188 -0.097406305 0.11640409 0.3198376 0.8600623 -0.045212623 -0.39408454 -0.16789699
0.3323656 0.7290776 0.14607157 1.5876828 0.27316737 1.3619052 -0.0054844865 0.22439708
0.0077263527 0.34563228 0.27863556 0.14758573 0.53362525 -0.4030931 -0.7066455 0.5392677
0.70916355 0.24508853 0.7183702 0.16240814 0.012754477 -0.054832492 -0.2926035 -0.14186205
0.4918143 0.5862707 -0.18669431 0.43356842 -0.29024875 -0.42556766 0.60677516 -0.20836274
-0.29205072 0.48717317 0.033090238 -0.25470075 0.8927907 0.3629482 0.12100741 0.06423803
-0.5458519 0.5391616 -0.017352741 0.3436816 0.20315506 0.14188842 -0.18202424 -0.22181453
0.7670341 -0.3953397 0.07322616 -0.35171083 0.596959 -0.620933 -0.21682541 -1.0442706
-0.7542661 -0.1991076 -0.426568 0.8684936 0.46869567 -0.14616092 -0.039526206 0.32810843
0.6682306 -0.14673953 0.37760982 -0.09090836 0.0052198856 0.26187384 0.82946795 0.8674335
0.36986312 0.17603475 -0.110586554 -0.3583494 -0.50612473 0.29979834 -0.13794741 -0.0020700232
0.18552047 -0.44741967 0.3527822 -0.6201868 -0.2501607 -0.25493145 -0.22813843 -0.4143011
-0.71945536 -0.53082365 0.91325456 -0.16116782 1.0633911 0.2760014 -0.56979805 -0.009213815
-0.15657826 0.14562923 0.881927 1.2007686 0.44873968 0.19021474 0.030062424 -0.20298359
-0.36580813 0.027042419 0.08483125 0.71159303 0.6578449 -0.580509 -0.13833709 0.9200461
-0.035967454 0.30105245 -0.94321126 1.2904532 0.45837876 0.089183405 -0.49679038 -0.02283833
-0.24584924 0.39742818 -0.016420163 0.016184203 0.18191713 -0.7434082 0.5391181 0.3153818
0.46786988 -0.45927146 -0.40905327 1.0318633 -0.17162748 -0.41430205 0.3318889 0.6127103
-0.9945956 -0.455693 0.3888055 0.25545847 0.05735502 -0.20198849 1.3208575 -0.09752016
-0.11326851 -0.39217257 0.40069783 0.15663461 0.43823597 0.16726561 -0.17757896 0.37670454
0.34845388 0.8891342 0.71261555 0.84901524 -0.060797747 0.19336745 0.7082732 0.067385435
-0.71105653 -0.7095588 -0.11959589 0.18225345 0.07666456 0.085159495 0.6200537 0.046617527
0.113287695 0.7829675 0.19977231 0.6649384 -0.7850611 -0.31097436 -0.0739479 0.49673614
-0.81156325 0.4572597 1.2762167 -0.4913715 -0.0944094 1.3649067 -0.089115955 -0.13417955
0.69604003 -0.03314368 -0.23457195 -0.0764813 0.1970766 -0.19711542 -0.26157364 -0.24881223

output.weight f4 [6, 256]
00000000: f071 d03e b4a5 2bbf a40f f83b 48e7 e7bf
00000010: f42c fe3c 0e09 1e3f a797 123f 690c bb3e
00000020: e827 0bbf c76e ee3e b2c9 a23f 8ba4 74bf
00000030: 256f 643e c664 a9be 0da4 b6be ec0c 493f
00000040: 486f 213f 0f15 f23f 7b0d b6be f987 f4bf
00000050: 1ee3 a5be d280 e5bf d6dc 203d c8b6 233f
00000060: 361b 36bf c988 b93e 96de 83be 7f82 93bd
00000070: 13af 7cbf 721b cf3f 9582 bcbf e1b2 c2be
00000080: b3de bcbf b219 d4bc 8736 40be 029b 7fbe
00000090: 2d73 75bd 9211 703e a8fc afbf d138 1cbf
000000a0: 55cc 093f 91e3 923e 4c00 a8bf db86 25bf
000000b0: f1e9 143f ec2c 8ebf 587d 6e3e 80ac d7be
000000c0: 2c35 683d d044 9abe ba42 7cbf 154a 09c0
000000d0: af5d eebe 3131 ea3e 6480 803f fcc0 153f
000000e0: 918f 2040 63b3 9cbe b9d8 913d c154 cf3e
000000f0: 91a1 02bc b26a 02c0 b052 11c0 25aa 4a3f
00000100: ec1b 53bd 8b2d 88be 8fe3 6a3f 272d 3bbf
00000110: 0a7e cc3e 9506 4fbe 6213 dcbf 318c 203f
00000120: 1daf 063f 0830 0fbf fe6d 9f3e b1b3 85bf
00000130: 12d9 b1bf 4ff3 33bf d829 3bbf e158 02be
00000140: 1e88 6abf 716f b73d 27b0 5bbd c241 febe
00000150: 85a4 40be f6ee d1bf 1971 a43f b0bc 45bf
00000160: 5f89 86bf 0ee9 e83e c147 45c0 46c8 09c0
00000170: ffbb 143f b90f 7f3f e667 a1bf da1d 0b3d
00000180: adc1 1f3e 5020 533f bf72 543d eb6c ce3e
00000190: 5d74 a5be b1bf 5cbf f09c 5b3d d35a 583f
000001a0: d3bc 1a3e 8c72 96be 4e4f a4bd b064 883d
000001b0: cfae 8ebf 7622 b9be a104 81bf 8e9e b83f
000001c0: 35b7 9c3e fb1d b6bf ad79 663f ecbe 3cbf
000001d0: 1106 aabe f327 90bf 036c c7be 65eb ab3f
000001e0: dcb0 0bbf 5ee4 51bf f46a 233f e056 ffbf
000001f0: 0e3f 77bf 1f15 91be 928d 32c0 1df7 a2be
00000200: 4191 0a3e 21c9 bf3f b974 4dbf fa58 ecbe
00000210: 337e 6c3f 0414 733e 6c20 79bd aa1a ae3d
00000220: b496 3dbf e95c 7d3f 1a73 2fbf f656 3cc0
00000230: a0ce 703c 32f0 153f ce64 db3e dd5e 023f
00000240: c646 a5be f928 883e 1e29 d53f 5172 f03f
00000250: fcb6 8e3e da2e 3e3f af2a f6bf 467b a73f
00000260: 0b2a ffbd 0a47 3e3d f889 01bd 6505 c1bf
00000270: 3ed3 73bf ff3c e13e 2917 343f 4ebd dd3e
00000280: 5ae3 babe f38a 94be 2758 14c0 6585 efbf
00000290: f3a1 b5be 27d9 4d3f 5871 483f 77b1 4bbe
000002a0: 18b5 99bf 90f3 313f 445e 5abf 8061 50bf
000002b0: ffe1 383f e587 c93f 62b7 dfbf b46f 503e
000002c0: c752 733f 1703 9abd fa1d 8a3c 48e5 f1be
000002d0: d448 8b3d 95cb 993b e140 0b40 9db0 0fc0
000002e0: fefe 52be 7c1d 9e3e 4379 123f 252b 203f
000002f0: f59a 913f 3d1c fd3e 3b01 bb3d 3015 a4bf
00000300: e477 51bf 0038 7b3e 4e6e 0a40 d087 b7be
00000310: 00dd f2bf 1a63 28bf 16ae 27c0 1100 a23d
00000320: cb3a e9be e414 a03e a980 023f 92fb 983b
00000330: 76ee a4be c949 f53e 2ce6 d9bf 5dab ed3e
00000340: 9a09 883f 6592 51bf 8c09 0e3f 32db 043f
00000350: 1af2 803c e478 133f 160f b3bf cd2a 3e3d
00000360: 1361 a13d d83d ef3e 135c e8bf 7808 35bf
00000370: cf8a 5e3e a312 7ebf 06f6 32bb 43ff 45c0
00000380: 5f1c b5bf ddf2 253f 4f5a b43e 9203 2e3f
00000390: a6d1 443f b790 a33f 47af 463e 7f72 2b3f
000003a0: 3304 debe 2b1b a0bf dfbc e9be c20d 08bf
000003b0: db3b ae3f af66 2f3f 05d3 81bf ce96 013f
000003c0: a735 b23d 581d e43e 54c9 cdbe 0248 acbf
000003d0: 225f 3dbd d6b4 59bf 7eb6 8ebf fbd9 b9be
000003e0: 5534 efbf 73cd 733f 3a72 8a3c 893a 8dbe
000003f0: 5db3 98bf a540 50bf 1078 813f 570b 103f
0.40711927 -0.6704972 0.007570224 -1.8117456 0.031027295 0.61732566 0.57262653 0.36532906
-0.5435777 0.4656889 1.2717803 -0.9556357 0.22308023 -0.33084697 -0.35672036 0.7853534
0.63060427 1.8912677 -0.3555716 -1.9103996 -0.3239984 -1.7929938 0.039273106 0.6395078
-0.7113527 0.3623717 -0.25755757 -0.072026245 -0.9870464 1.6180251 -1.472735 -0.380271
-1.4755462 -0.025891159 -0.187708 -0.24961475 -0.059924293 0.23444203 -1.374898 -0.61024195
0.5382741 0.28689244 -1.3125091 -0.646589 0.58169466 -1.1107459 0.23290002 -0.42123795
0.056691334 -0.30130625 -0.98539317 -2.1451466 -0.4655585 0.45740655 1.0039182 0.58497596
2.5087626 -0.3060561 0.07121415 0.4049435 -0.007973091 -2.0377622 -2.2706718 0.7916587
-0.0515403 -0.26597247 0.91753477 -0.7311577 0.3993991 -0.20217355 -1.7193415 0.62713915
0.5261095 -0.55932665 0.31138605 -1.0445462 -1.389437 -0.70293134 -0.73110723 -0.12729217
-0.9161395 0.08956803 -0.05363479 -0.49659544 -0.18812759 -1.640105 1.2847015 -0.7724104
-1.0510672 0.45490307 -3.0825045 -2.1528487 0.5809936 0.99633366 -1.2609832 0.033964016
0.15601225 0.8247118 0.051867243 0.40317473 -0.3231534 -0.8623 0.053616464 0.84513587
0.15111093 -0.29384267 -0.08022939 0.066598296 -1.1147097 -0.36159104 -1.0079538 1.4423387
0.30608526 -1.4227899 0.9002941 -0.73728824 -0.33207753 -1.1262192 -0.38949594 1.3431212
-0.5456674 -0.81989086 0.6383507 -1.9948387 -0.9658059 -0.28336427 -2.7898908 -0.31829157
0.13531972 1.4983255 -0.8025623 -0.46161634 0.92380065 0.23738104 -0.060821936 0.085011795
-0.7405808 0.98969895 -0.68535006 -2.9428077 0.014697701 0.58569634 0.42850345 0.50926
-0.32280558 0.2659376 1.6653173 1.8784887 0.2787398 0.7429024 -1.9231776 1.3084495
-0.12459191 0.046454467 -0.031625718 -1.5079771 -0.95244205 0.4399185 0.7034784 0.4330849
-0.3650158 -0.2901226 -2.3178804 -1.8712584 -0.3547512 0.80409473 0.7829795 -0.19891916
-1.200839 0.6951227 -0.8530009 -0.81398773 0.7221984 1.5744597 -1.7477839 0.20355111
0.95048183 -0.075201206 0.016859997 -0.4724524 0.06801 0.0046934583 2.175835 -2.2451546
-0.20605084 0.3088187 0.5721628 0.62565833 1.1375414 0.49435607 0.09131094 -1.2818966
-0.81823564 0.24533081 2.1629825 -0.35845804 -1.8973694 -0.65776217 -2.6200004 0.07910169
-0.45552668 0.31265938 0.5097757 0.0046686614 -0.3221318 0.47907856 -1.7023368 0.46419802
1.062793 -0.81864005 0.5548332 0.51896966 0.015740443 0.5760634 -1.3988979 0.046427537
0.078798436 0.4672687 -1.8153099 -0.7071605 0.21732639 -0.9924719 -0.0027307286 -3.093705
-1.4149283 0.64823705 0.3522515 0.679742 0.768824 1.2778538 0.194028 0.6697158
-0.4336258 -1.2508291 -0.4565191 -0.5314599 1.3612016 0.6851606 -1.0142523 0.50620735
0.087016396 0.44553638 -0.40192664 -1.3459475 -0.046233304 -0.8504156 -1.1149442 -0.36299118
-1.8687845 0.95235366 0.01690017 -0.2758372 -1.1929737 -0.8134864 1.0114765 0.56267303

output.bias f4 [6]
00000000: b369 053e b97e 81bf 9370 76be e69a 3c3e
00000010: 65f0 fe3e 671d b33e
0.13028602 -1.0116798 -0.24066381 0.18418464 0.4979278 0.3498337

output_uncertainty.weight f4 [6, 256]
00000000: ab05 8d3c f730 bc3c 1d05 723c f249 263c
00000010: 7f35 1b3d d1cb 7d3c eb49 553c 490e a63c
00000020: bc13 b33c 5225 b53c 0c5a c93c 831a 043d
00000030: d2c0 a43c 0b6f 9c3c 659c c33c 3c0e 313c
00000040: 2076 443c 35d2 243c c02f bd3c 5167 be3c
00000050: be0f da3c 3aa5 463c 851c 943c 8fd0 9c3c
00000060: 2143 ab3c 0eac ba3c f6fd 293c f3b0 443c
00000070: 9d06 a13c 04a4 483c dd57 333c eb3d 403c
00000080: fd43 223c bd02 193d 89d9 2e3c d090 9b3c
00000090: 9853 a33c 2e50 a33c 745e 663c 06f8 593c
000000a0: 18c0 ab3c 9c8c a33c 556f 2d3c edf9 3d3c
000000b0: 7e15 3f3c 8558 a73c b305 1f3c 4d75 9f3c
000000c0: f069 a83c 64f7 2d3c 17ac 393c 25c3 343c
000000d0: d900 ee3c 0a49 a13c 1bf9 aa3c 1a52 033d
000000e0: 1a23 293c 144a 873c ffb3 ba3c d105 343c
000000f0: e7dc 393c 216e 443c 05a4 273c 00f6 fa3c
00000100: f089 c53c d862 923c f041 b03c 23e8 a43c
00000110: 038d bb3c 12ae a53c fec8 533c 2e15 2f3c
00000120: 8f11 8a3c a212 343c c846 b53c 91a9 3d3c
00000130: 987b 363c bb15 3b3c 122e 173c 1413 323c
00000140: b032 453c 110b b83c fb03 413c 8691 0b3d
00000150: a429 ad3c ffde a73c b4a8 bf3c 5d5f 3d3c
00000160: 87e6 063d 3f61 a33c cf2b b73c 89c1 b03c
00000170: 7539 a73c 1582 9c3c acb6 ae3c e933 4c3c
00000180: 83d7 a93c 3a37 763c 80b7 3b3c f145 353c
00000190: b427 3e3c 410a cd3c f726 3b3c f96a 253c
000001a0: 6238 113c 3065 383c 6ce4 4a3c 4038 a83c
000001b0: ec32 313c 5953 593c 020d af3c c77d 363c
000001c0: 181e 283c 8fb4 ba3c 093d c03c a41b 0c3d
000001d0: f03a 323c 91e9 3c3c bcea 293c d1b3 3b3c
000001e0: cada 243c 3393 8e3c 3255 483c 6aed a13c
000001f0: 0ef1 3d3c d439 ab3c 0648 af3c 36c0 a53c
00000200: a81f a23c cf24 1e3c 8893 9b3c 2ab2 a13c
00000210: c646 d43c e3c0 1c3c 8e3c 5e3c c24d b13c
00000220: ab8d 3b3c aa8a b33c b376 a13c f364 2f3c
00000230: 14a4 153c b3a7 c73c 174e 283c c482 033d
00000240: 90ce 393c c651 a83c 7b92 b33c 0fb1 2e3c
00000250: f191 2f3c b03c 3d3c ad57 9d3c e648 a93c
00000260: f383 3c3c efb6 a43c 6410 2f3c 6cfe c33c
00000270: 00b7 5f3c dba3 673c 1108 a43c 88a9 563c
00000280: ad82 2a3c 533e 2c3c d610 693c acac b73c
00000290: 054c c73c 7924 aa3c fd6d 063d a5bc 403c
000002a0: 4869 e43c ff3b 673c 9c82 593c 7604 3d3c
000002b0: 6f7e ac3c 9046 343c 7398 c13c 2378 2f3c
000002c0: 8aa9 d83c 45af a73c 167e 293c 0285 ac3c
000002d0: 6dda b13c 69ab a93c 4d97 c83c 6624 e13c
000002e0: e30d 3d3c dae8 173c f0e5 3e3c 7e19 3b3c
000002f0: 6fee 363c b424 a63c bdb1 333c cc65 bf3c
00000300: f866 b33c 7c94 a33c 5266 323c 16bf 443c
00000310: b12c b93c bf02 273c 4f62 b13c 52b1 233c
00000320: 6c58 353c 0013 a33c e36d da3c 7276 b03c
00000330: 8004 5e3c 31ff 2a3c f815 de3c a31e 273c
00000340: 7120 b03c be22 aa3c f932 393c b289 9f3c
00000350: 2a4d cd3c 5c18 a03c 2e8c ee3c 21a9 b13c
00000360: fb87 2a3c d753 ae3c 8376 cd3c 2e7e b43c
00000370: 5fad cb3c 475d c23c 19c2 4a3c 494c 3c3c
00000380: 6710 bf3c 5491 a33c ec29 363c ab9c 993c
00000390: 11cc 423c 7cd6 433c edfc b23c 3941 b63c
000003a0: 1b85 103c 70e4 b03c a955 393c 9cec 363c
000003b0: a083 313c aead 1e3c 5099 493c b6cd af3c
000003c0: 2ee8 b33c b1f0 173c 0391 ab3c c342 1f3c
000003d0: 692a 243c 47bf b73c 8a0d ad3c 2550 273c
000003e0: 1fe3 ab3c b8af be3c 144a 233c 7c2e 283c
000003f0: ccea a23c b3ce 593c 2e95 6c3c 8b97 a43c
0.017214617 0.022972567 0.014771727 0.010149466 0.037892815 0.015490488 0.013018112 0.020270484
0.021859996 0.022112522 0.02457907 0.032251846 0.020111475 0.019095918 0.023878286 0.010806616
0.011991054 0.010059883 0.023094058 0.023242624 0.026618835 0.012124354 0.018080005 0.019142417
0.020906033 0.02278712 0.01037549 0.012005079 0.019656474 0.012246136 0.010946241 0.011733512
0.009903905 0.037356127 0.010671982 0.01898995 0.019937322 0.019935694 0.014060605 0.013303762
0.02096562 0.019964509 0.010585626 0.0115952315 0.011662839 0.020427952 0.009705949 0.019465113
0.020558327 0.010618065 0.011332533 0.011032854 0.029053139 0.019688148 0.020870736 0.03206072
0.01032331 0.016514815 0.022790907 0.010987715 0.011344171 0.011989147 0.010231976 0.03063488
0.024113625 0.017869398 0.021515816 0.020130223 0.022894388 0.020224605 0.012926338 0.010686202
0.016854076 0.0109907705 0.022128478 0.011576072 0.0111378655 0.011418755 0.009227293 0.010868806
0.012036011 0.022466214 0.011780734 0.03407433 0.02113802 0.020492075 0.023395874 0.011558381
0.03293469 0.019943831 0.022359757 0.02157666 0.02041314 0.019104997 0.02132734 0.012463548
0.020732647 0.0150278155 0.011457324 0.011064039 0.011606146 0.025029304 0.011422864 0.010096305
0.00886354 0.011254594 0.012383562 0.020534635 0.010815363 0.013264501 0.021368507 0.011138386
0.010261081 0.022791175 0.023466604 0.034206048 0.01087831 0.011530296 0.010370906 0.011456446
0.010061929 0.017404174 0.012227343 0.019766528 0.011593116 0.020901598 0.021396648 0.020233255
0.019790486 0.009652331 0.018991247 0.019738276 0.025912654 0.009567472 0.013564242 0.021643523
0.0114473505 0.021916706 0.01970992 0.0107052205 0.009133358 0.024371957 0.010272524 0.03210713
0.011340752 0.020546805 0.021920433 0.010662331 0.0107159475 0.011550114 0.019206846 0.020664643
0.0115060685 0.02010676 0.01068506 0.023925029 0.01365447 0.014138187 0.020023378 0.013101943
0.010407132 0.010512906 0.014225205 0.022421204 0.024328241 0.020769345 0.032819737 0.011763726
0.027882233 0.014113425 0.013275769 0.011536708 0.021056382 0.011003152 0.023632264 0.010709795
0.02644803 0.020469317 0.010345003 0.021059517 0.021710599 0.020711618 0.024486208 0.027483176
0.011538955 0.009271825 0.011651501 0.011419652 0.011165245 0.020281173 0.010967669 0.02336397
0.021899685 0.019968264 0.010888653 0.012008449 0.022604318 0.010193526 0.021653323 0.009991007
0.011068445 0.01990652 0.026663726 0.021540854 0.013550878 0.010436819 0.027110085 0.010200175
0.021499844 0.02076852 0.011303657 0.019474838 0.025061209 0.019542865 0.029119577 0.021687092
0.010408397 0.021280212 0.025080925 0.022032823 0.024862943 0.023726119 0.012375378 0.011492797
0.023323251 0.019966759 0.011118393 0.018751463 0.011889474 0.0119529925 0.02184912 0.022247897
0.008820797 0.021593302 0.011311927 0.0111648105 0.0108346045 0.009684963 0.012304619 0.021460395
0.021961298 0.009273694 0.02094317 0.009720507 0.010019877 0.022430075 0.02112462 0.010211979
0.020982323 0.023277149 0.009966392 0.010264989 0.01988735 0.01329391 0.014439864 0.020091793

output_uncertainty.bias f4 [6]
00000000: 481c a63c 8e14 49bc 8ee4 b53c da97 ba3c
00000010: b641 ac3c 05a4 a03c
0.020277157 -0.012272967 0.02220371 0.022777487 0.021027427 0.01960946
